student_policy_1000eps_20epochs.pt (torch, 651122 bytes, 12 tensors)

weight f4 [32, 8, 8, 8]
0.021970311 -0.0057945866 -0.032663804 0.082172655 0.06404542 0.047338974 -0.013054998 -0.11466981
-0.03201925 -0.039749254 -0.002635457 0.063912354 0.028048288 -0.061825536 -0.14918287 -0.1779483
-0.002782933 -0.035419937 0.012695273 0.05504874 -0.018955907 -0.105044685 -0.14058298 -0.13000564
0.027044367 -0.02500804 0.05053999 0.041477866 -0.048676137 -0.1370728 -0.14033493 -0.13849854
-0.033611253 -0.016772063 -0.0003950459 -0.04864422 -0.080955185 -0.059851978 -0.11232139 -0.18876567
-0.054535918 -0.0013268063 0.022485191 -0.049068373 -0.043981712 -0.025941456 -0.11414673 -0.15818118
-0.0031853511 -0.063034184 0.017188974 -0.036297496 -0.031886145 -0.054825746 -0.100541584 -0.123108186
0.026926592 0.083348624 0.0748552 0.05446681 0.004255809 -0.021355787 -0.024118204 -0.004994788
0.09714158 -0.01641355 -0.015420829 0.050465472 0.048457533 0.069818914 -0.04291715 -0.04823297
0.040598836 -0.024116684 0.016482985 0.042557836 0.04300077 0.026676621 -0.020775756 -0.09134742
-0.042318307 -0.025263177 0.03907695 0.005134299 -0.003110322 0.0052564107 -0.105594404 -0.13988566
0.0068451134 0.035028487 0.023577815 0.06513233 0.015253843 -0.051017806 -0.15044 -0.082307585
0.027889488 0.04581744 0.022669695 -0.017783305 -0.028397879 -0.06655007 -0.09095388 -0.1771337
-0.04390439 0.056366265 0.03968573 0.06581702 -0.06021918 -0.08105863 -0.16080269 -0.13149294
-0.00073595106 0.036983978 0.05328356 0.004219559 -0.038873784 -0.10550929 -0.06875832 -0.07271816
-0.00074137346 0.01965121 0.008359334 0.006686669 -0.0008159629 -0.037335053 -0.06055213 -0.04441988
0.041268073 0.009193383 -0.0023428008 0.0047088335 0.085090294 0.017818537 0.041366007 -0.056970116
0.014739169 -0.02400902 0.0385681 0.055867873 0.039667744 -0.013632244 -0.014260537 -0.10747107
0.024149338 -0.023065906 0.021354308 0.029231971 -0.0029928642 0.0028734826 -0.045848433 -0.14321132
-0.0022141347 0.12113855 0.11675348 0.10547039 0.05690703 -0.0059863585 -0.1004365 -0.08800242
-0.0028610744 0.05396082 0.07061466 0.03466633 0.01830152 -0.07940064 -0.042242076 -0.118120216
0.020373795 0.044886395 0.10217258 0.04435245 0.026105857 -0.11363853 -0.105916165 -0.17390843
0.025102725 0.009401402 0.005438764 0.032178603 -0.027545119 -0.12392103 -0.114582255 -0.15013777
0.021447552 0.028241606 0.011133319 -0.010013174 -0.03377511 -0.080732875 -0.071511 -0.1096758
0.07968526 -0.05527857 -0.032843076 0.025401868 0.052759696 0.012177578 0.07724061 -0.01362175
0.013784623 0.02204967 0.093053386 0.0338194 0.056893624 0.038270876 -0.042561684 -0.08578014
0.017295273 0.06289057 0.06418413 0.027032815 0.018640587 0.03959909 -0.039522164 -0.0923957
0.046638194 0.057818912 0.048048522 0.082712375 0.062901475 0.034722775 -0.02980383 -0.044241115
0.070680454 0.08740713 0.04788975 0.076529495 0.08432276 -0.043018155 -0.098110124 -0.10993659
-0.022510685 0.038556162 0.1127935 0.05191907 0.060222946 -0.046220265 -0.08489611 -0.13808684
0.038085006 0.055733863 0.0018011222 0.037904274 -0.018415432 -0.10778029 -0.06815653 -0.11607214
0.007473599 0.009763961 -0.022244766 0.027175484 -0.06994435 -0.09846551 -0.05468219 -0.14493307
00000000: 15fb b33c 84e0 bdbb 7bca 05bd 234a a83d
00000010: 3f2a 833d 83e6 413d a1e4 55bc 01d8 eabd
00000020: 9e26 03bd 1dd0 22bd a2b7 2cbb 7be4 823d
00000030: 86c5 e53c c63c 7dbd 65c3 18be 1438 36be
00000040: de61 36bb 7f14 11bd d6ff 4f3c ca7a 613d
00000050: 6b49 9bbc ab21 d7bd fcf4 0fbe 3320 05be
00000060: 268c dd3c a9dd ccbc 0503 4f3d b2e4 293d
00000070: a160 47bd d05c 0cbe f6b3 0fbe 90d2 0dbe
00000080: f4ab 09bd 9165 89bc 2a1e cfb9 293f 47bd
00000090: d5cb a5bd 5927 75bd c208 e6bd ca4b 41be
000000a0: 0e61 5fbd 3be8 adba dd32 b83c ebfb 48bd
000000b0: 2b26 34bd 2d83 d4bc c3c5 e9bd 3ffa 21be
000000c0: 53c1 50bb 1118 81bd e4cf 8c3c afac 14bd
000000d0: 0c9b 02bd f690 60bd bfe8 cdbd 2520 fcbd
000000e0: 2895 dc3c afb2 aa3d af4d 993d 9718 5f3d
000000f0: 5074 8b3b 55f2 aebc 8a93 c5bc 52ab a3bb
00000100: 2af2 c63d b675 86bc a5a7 7cbc e2b4 4e3d
00000110: 687b 463d 38fd 8e3d e5c9 2fbd ef8f 45bd
00000120: f74a 263d 5a90 c5bc 5307 873c 2051 2e3d
00000130: 9321 303d ee88 da3c eb31 aabc 5b14 bbbd
00000140: f655 2dbd b9f4 cebc 270f 203d 9f3d a83b
00000150: 8bd6 4bbb f83d ac3b e141 d8bd 303e 0fbe
00000160: f94c e03b 087a 0f3d 4326 c13c 1964 853d
00000170: 41eb 793c 0cf8 50bd f20c 1abe e190 a8bd
00000180: 7f78 e43c 11ab 3b3d ccb5 b93c 4bae 91bc
00000190: aba2 e8bc 674b 88bd 0746 babd 8962 35be
000001a0: 17d5 33bd 50e0 663d 818d 223d 13cb 863d
000001b0: 63a8 76bd 1102 a6bd 76a9 24be 16a6 06be
000001c0: d7ec 40ba 837c 173d dd3f 5a3d 3a44 8a3b
000001d0: 1e3a 1fbd 4115 d8bd 29d1 8cbd 42ed 94bd
000001e0: bb58 42ba 93fb a03c 97f5 083c d81b db3b
000001f0: 58e6 55ba a4ec 18bd 8305 78bd 9ff1 35bd
00000200: b608 293d d89f 163c ad89 19bb 8f4c 9a3b
00000210: d243 ae3d 2ef8 913c 676f 293d 7f59 69bd
00000220: 8e7c 713c 90ae c4bc 96f9 1d3d b6d5 643d
00000230: a57a 223d c759 5fbc 07a5 69bc cb19 dcbd
00000240: d5d4 c53c b6f4 bcbc 3bef ae3c e377 ef3c
00000250: ee23 44bb 0a51 3c3b 91cb 3bbd fda5 12be
00000260: 041b 11bb 7d17 f83d 731c ef3d dc00 d83d
00000270: 5917 693d 3729 c4bb a7b1 cdbd 9d3a b4bd
00000280: dd80 3bbb 0506 5d3d 6b9e 903d 48fe 0d3d
00000290: 12ed 953c ce9c a2bd 0706 2dbd 03e9 f1bd
000002a0: f2e6 a63c ccda 373d dc3f d13d eaaa 353d
000002b0: f3db d53c 51bb e8bd 93ea d8bd 0d15 32be
000002c0: 3ba4 cd3c 5708 1a3c a937 b23b b6cd 033d
000002d0: 4da6 e1bc 4fca fdbd 1aaa eabd b7bd 19be
000002e0: c7b2 af3c f15a e73c 8668 363c 4c0e 24bc
000002f0: c557 0abd 4757 a5bd 5c74 92bd b59d e0bd
00000300: 0732 a33d c86b 62bd 7686 06bd 9417 d03c
00000310: 8d1a 583d 7784 473c 5330 9e3d c32d 5fbc
00000320: e6d8 613c 82a1 b43c c692 be3d 3686 0a3d
00000330: 4a09 693d ecc1 1c3d 2955 2ebd 7fad afbd
00000340: d1ae 8d3c c5cc 803d f872 833d ec73 dd3c
00000350: 25b4 983c a832 223d fee1 21bd f539 bdbd
00000360: b107 3f3d 86d3 6c3d 87ce 443d 1b65 a93d
00000370: 7dd2 803d 7839 0e3d 2927 f4bc 2c36 35bd
00000380: eac0 903d 8202 b33d 0b28 443d 7fbb 9c3d
00000390: 69b1 ac3d ce33 30bd f6ed c8bd 6f26 e1bd
000003a0: 5468 b8bc 11ed 1d3d 4700 e73d 17a9 543d
000003b0: 56ac 763d 7651 3dbd 03de adbd a366 0dbe
000003c0: 06ff 1b3d 3149 643d a213 ec3a 8341 1b3d
000003d0: f6db 96bc eabb dcbd a795 8bbd 3bb7 edbd
000003e0: 18e5 f43b 05f9 1f3c a83a b6bc 1f9f de3c
000003f0: fc3e 8fbd 49a8 c9bd 6ffa 5fbd 5669 14be

bias f4 [32]
-0.0032420321 0.038793348 0.03368092 0.055635273 0.040965736 0.041914426 0.03537857 0.047211736
0.065702915 0.059475094 0.051472913 -0.050597712 0.006822713 0.019754693 0.051179964 0.04351524
0.08112831 0.0021149921 0.012263943 0.05122683 -0.0037488034 -0.06082897 0.06656708 0.038003284
0.0052323686 0.076654814 0.042273406 -0.022377292 0.042002928 0.010247316 0.042536706 0.013841227
00000000: 4678 54bb c6e5 1e3d 01f5 093d d0e1 633d
00000010: b0cb 273d 76ae 2b3d 1fe9 103d 1861 413d
00000020: 408f 863d 289c 733d 43d5 523d 8c3f 4fbd
00000030: 1191 df3b 98d4 a13c 15a2 513d 093d 323d
00000040: 9926 a63d ae9b 0a3b b5ee 483c 39d3 513d
00000050: 7cae 75bb cc27 79bd 5254 883d 55a9 1b3d
00000060: 4a74 ab3b 33fd 9c3d e126 2d3d 9550 b7bc
00000070: 430b 2c3d 5ce4 273c f83a 2e3d 50c6 623c

weight f4 [64, 32, 4, 4]
-0.086770646 0.0476995 -0.0013123561 -0.1454195 0.040752802 0.05631497 -0.15768269 -0.22880176
0.0064167203 0.02012092 -0.16045156 -0.04135122 -0.07638739 0.013561801 -0.040714215 0.101616435
0.0018929845 0.080336206 0.01100132 -0.14339563 0.012194122 0.05109893 -0.10192948 -0.064129315
-0.044582304 -0.033902753 -0.104238905 0.016619341 0.09447452 0.09224912 0.0627449 0.078467056
-0.016693205 0.09864871 -0.0653265 -0.18997155 0.05555246 0.06149177 -0.04757201 -0.09600789
-0.029486421 0.013240961 -0.16082628 -0.060269237 0.033378072 0.07746439 0.04361517 0.047620215
0.0015147367 0.08501173 -0.011375139 -0.078730285 -0.053201713 0.03677914 0.0062445477 -0.079304606
0.058149997 0.011456265 -0.119462065 0.02945346 -0.029262869 0.07227071 0.033407185 -0.011949577
0.06659767 0.03945813 -0.04460255 -0.022655388 0.05016242 0.040250614 -0.013646732 -0.03495601
-0.021148525 -0.141721 -0.14841054 0.0536786 0.040067963 0.052926656 0.030700218 0.0073624947
0.06854657 0.029998397 -0.08197258 -0.044680517 0.100689225 0.032380756 -0.06500558 -0.032452695
0.0007830903 -0.11374888 -0.08450568 0.0517 0.046962075 -0.020177785 0.04306847 -0.055579156
0.05384296 0.062428217 0.017199475 0.048467793 0.026988994 0.029260023 -0.045643408 0.03959782
-0.012786636 -0.026293138 -0.055757623 0.03451876 0.031424973 -0.028149027 -0.0639644 0.0166037
0.0014947465 0.04875223 -0.11878702 -0.03607128 0.07474267 -0.009110697 -0.10696992 0.036435455
0.0361258 -0.17431358 -0.15560462 0.089945026 -0.040737886 -0.02151569 0.0140352985 -0.043090582
-0.02810547 0.0015084081 -0.043748636 -0.05792514 0.066814914 0.022778573 -0.08722936 0.010525811
-0.033312652 -0.13610673 -0.08630324 0.060935725 -0.038299456 0.019785505 0.03338044 0.060242135
-0.0029262023 0.05889719 0.0133416625 -0.17518276 0.051203027 0.02677301 -0.04616279 -0.051278695
0.0018868413 -0.06511761 -0.14373644 -0.0290966 -0.030780012 0.09076726 -0.017702522 0.0126228
0.017929763 0.03427676 0.013875919 -0.028104119 0.010346984 0.009243166 -0.06948124 -0.006999077
0.014254568 -0.16077937 -0.12201922 0.03393642 0.06202029 -0.020960959 0.026584744 0.0074308654
0.0014199577 0.07061456 -0.034475107 -0.0146548385 0.04043171 0.06609076 -0.07921518 -0.05749566
0.07357441 -0.060305983 -0.07117502 0.058347005 -0.006761267 0.17133948 0.12208885 0.008591407
0.064371 0.099471435 -0.028564831 -0.07781588 -0.009907082 0.04852925 -0.11685033 -0.01755479
0.02436995 -0.04621485 -0.024948087 0.046706315 -0.015506609 0.03829508 -0.027360268 0.07401921
0.030771816 0.05834155 0.016639728 -0.17533146 0.024068154 0.07550696 -0.09596182 -0.12471257
0.014506637 -0.055417012 -0.27634597 -0.059246216 0.02894011 0.12271706 0.003986106 0.11398545
-0.00082882674 0.05258697 -0.050512034 -0.06562284 0.058866214 0.010221245 -0.049386322 -0.035974924
-0.050948538 -0.018637225 -0.012205863 0.006541557 0.088699326 0.14861296 0.119022496 0.058239404
-0.021596523 0.08859879 0.022708682 -0.22014788 -0.03533364 0.0434171 -0.020749317 -0.152136
0.02645285 0.013370533 -0.1561348 -0.043061916 0.077619314 0.118827015 -0.05152841 0.08066186
00000000: cfb4 b1bd 8d60 433d 5d03 acba d9e8 14be
00000010: 69ec 263d 87aa 663d 9277 21be 024b 6abe
00000020: 5a43 d23b a1d4 a43c 6a4d 24be e65f 29bd
00000030: fe70 9cbd 5132 5e3c f3c3 26bd 471c d03d
00000040: 051e f83a 4f87 a43d e13e 343c 4ed6 12be
00000050: dbc9 473c 1d4d 513d 67c0 d0bd 3b56 83bd
00000060: ef9b 36bd 9ddd 0abd 357b d5bd 4925 883c
00000070: db7b c13d 1bed bc3d 6680 803d 56b3 a03d
00000080: 30c0 88bc 5608 ca3d e6c9 85bd e787 42be
00000090: fa8a 633d cbde 7b3d deda 42bd c99f c4bd
000000a0: 828d f1bc 9ef0 583c a5af 24be e0dc 76bd
000000b0: 72b7 083d a6a5 9e3d d2a5 323d 6a0d 433d
000000c0: 218a c63a a11a ae3d ca5e 3abc 583d a1bd
000000d0: 0aea 59bd b9a5 163d 109f cc3b 746a a2bd
000000e0: b12e 6e3d 0fb3 3b3c 87a8 f4bd 6248 f13c
000000f0: afb8 efbc aa02 943d f9d5 083d 29c8 43bc
00000100: 5c64 883d d99e 213d 2ab1 36bd cb97 b9bc
00000110: 1c77 4d3d d4dd 243d 8b96 5fbc 082e 0fbd
00000120: ac3f adbc 4f1f 11be eff8 17be 17de 5b3d
00000130: 4e1e 243d 9fc9 583d 067f fb3c 1541 f13b
00000140: 2562 8c3d 33bf f53c 3de1 a7bd eb02 37bd
00000150: 2736 ce3d afa1 043d a521 85bd 1eed 04bd
00000160: 4d48 4d3a 2cf5 e8bd 5011 adbd 61c3 533d
00000170: 4e5b 403d e24b a5bc 9068 303d f8a6 63bd
00000180: 708a 5c3d bbb4 7f3d eae5 8c3c 2a86 463d
00000190: 0618 dd3c b7b2 ef3c 95f4 3abd 5331 223d
000001a0: 0a7f 51bc b564 d7bc 1b62 64bd 8b63 0d3d
000001b0: 79b7 003d ca98 e6bc c4ff 82bd 7c04 883c
000001c0: 5feb c33a 6bb0 473d 9c46 f3bd 7abf 13bd
000001d0: af12 993d 0845 15bc 0c13 dbbd 583d 153d
000001e0: a6f8 133d 427f 32be d156 1fbe 1935 b83d
000001f0: c5dc 26bd ac41 b0bc 4ff4 653c c07f 30bd
00000200: 713d e6bc c7b5 c53a c531 33bd e942 6dbd
00000210: 42d6 883d 219a ba3c 4fa5 b2bd 7474 2c3c
00000220: d972 08bd 905f 0bbe c1bf b0bd bd97 793d
00000230: e4df 1cbd 3615 a23c eeb9 083d 75c0 763d
00000240: 87c5 3fbb 2e3e 713d fd96 5a3c 1c63 33be
00000250: 44ba 513d 1253 db3c 3215 3dbd 9c09 52bd
00000260: e34f f73a 625c 85bd a52f 13be fe5b eebc
00000270: 5d26 fcbc 2fe4 b93d e104 91bc dccf 4e3c
00000280: 70e1 923c ca65 0c3d d357 633c 9c3a e6bc
00000290: 6586 293c a670 173c 2e4c 8ebd 8358 e5bb
000002a0: fe8b 693c 59a3 24be 36e5 f9bd ea00 0b3d
000002b0: fd08 7e3d 51b6 abbc 40c8 d93c 9e7e f33b
000002c0: e01d ba3a 5e9e 903d c535 0dbd d91a 70bc
000002d0: b99b 253d 985a 873d 913b a2bd 9280 6bbd
000002e0: 2eae 963d 6803 77bd 35c4 91bd 45fd 6e3d
000002f0: 9e8d ddbb 9e73 2f3e b809 fa3d f9c2 0c3c
00000300: f1d4 833d aeb7 cb3d cb00 eabc ef5d 9fbd
00000310: 5051 22bc 9bc6 463d 3a4f efbd 10cf 8fbc
00000320: 7da3 c73c c84b 3dbd ee5f ccbc 1f4f 3f3d
00000330: 6f0f 7ebc 4ddb 1c3d a422 e0bc 6297 973d
00000340: 2d15 fc3c 8df7 6e3d 0a50 883c 178a 33be
00000350: 942a c53c 65a3 9a3d a187 c4bd 4e69 ffbd
00000360: 3fad 6d3c f3fc 62bd 387d 8dbe 29ac 72bd
00000370: cf13 ed3c 1553 fb3d e19d 823b 3471 e93d
00000380: 9f45 59ba 6f65 573d b5e5 4ebd 4465 86bd
00000390: b31d 713d 0277 273c 5049 4abd 715a 13bd
000003a0: 6aaf 50bd 18ad 98bc 1afb 47bc 8f5a d63b
000003b0: fea7 b53d ff2d 183e 11c2 f33d 718c 6e3d
000003c0: 31eb b0bc 4873 b53d 8f07 ba3c 726e 61be
000003d0: 02ba 10bd 21d6 313d 79fa a9bc 8ac9 1bbe
000003e0: a6b3 d83c 1410 5b3c cde1 1fbe b161 30bd
000003f0: e0f6 9e3d 945b f33d 740f 53bd 0c32 a53d

bias f4 [64]
0.014021887 -0.014576501 -0.021396825 -0.039637838 -0.025980737 0.009793024 -0.007183382 -0.018535856
0.024596442 0.020524938 -0.023948966 0.022894695 -0.0034020501 0.006967297 0.072068006 -0.019864732
0.003345026 0.017670836 -0.02876557 -0.033766013 0.024992654 0.023966786 0.040645633 0.039860968
0.03460283 0.06647114 -0.0052881916 0.01199806 -0.028165285 -0.00507425 0.047519565 0.037186064
-0.0025210525 -0.02650278 0.041460067 0.073413566 -0.0068501285 0.0013612054 -0.02379525 -0.027770594
0.005475898 -0.019657385 0.047549658 0.021985006 -0.02042264 -0.03878943 -0.02768695 -0.008916086
-0.023038307 0.07588155 0.040244833 0.009726366 0.021830192 0.010557272 -0.02725225 -0.0029588323
-0.0055185407 -0.02394143 -0.02676786 0.028889198 -0.02484611 0.0052845976 0.040204935 0.0041847625
00000000: 0fbc 653c 47d2 6ebc 6548 afbc 495b 22bd
00000010: 8ed5 d4bc eb72 203c 9362 ebbb 82d8 97bc
00000020: 7a7e c93c ea23 a83c 9f30 c4bc a88d bb3c
00000030: eef4 5ebb ec4d e43b 6498 933d 5dbb a2bc
00000040: 3938 5b3b 6ec2 903c c6a5 ebbc 3b4e 0abd
00000050: 65bd cc3c fe55 c43c 097c 263d 4145 233d
00000060: b2bb 0d3d 0522 883d 9148 adbb 8393 443c
00000070: e2ba e6bc e545 a6bb e0a3 423d 6a50 183d
00000080: 3e38 25bb 5c1c d9bc 08d2 293d da59 963d
00000090: 0b77 e0bb 796a b23a 42ee c2bc 287f e3bc
000000a0: 296f b33b 8608 a1bc 6ec3 423d e619 b43c
000000b0: 614d a7bc aae1 1ebd becf e2bc c614 12bc
000000c0: d5ba bcbc c967 9b3d c4d7 243d 565b 1f3c
000000d0: 3bd5 b23c 68f8 2c3c 1c40 dfbc f8e8 41bb
000000e0: e0d4 b4bb d120 c4bc 4548 dbbc 0aa9 ec3c
000000f0: 128a cbbc 6b2a ad3b eead 243d 5520 893b

weight f4 [128, 64, 3, 3]
-0.08355376 -0.022823963 -0.03619414 -0.012626912 0.020873975 -0.0038902424 0.03210667 -0.018768707
-0.085604824 -0.01705919 0.00018405651 -0.033394065 0.024679447 -0.023727408 0.045041583 0.0064915135
0.03837239 -0.018111005 -0.040710896 0.0067392504 0.07297312 0.024626624 0.017238371 0.0048114653
0.024488494 0.027646454 -0.016625868 -0.008452176 -0.01818212 0.0024860564 0.038856186 -0.007778561
-0.08384623 0.04415584 0.03535279 -0.036837894 0.0034263257 -0.022964785 -0.028975684 0.01734369
-0.009537808 -0.070996754 0.04301216 0.015948132 -0.023142243 -0.014456323 -0.011057419 0.003455828
0.050777007 -0.0005732568 -0.07799067 0.008242429 0.008769813 -0.061641417 -0.019037094 0.052826125
-0.013199094 -0.02323093 -0.03916726 -0.008164396 -0.015064852 -0.019881736 0.0035130796 0.022434574
0.018350748 -0.030667668 0.0710581 0.03846403 -0.008771257 0.02372645 -0.008218568 0.090999976
-0.05479721 -0.038056195 -0.010829269 -0.035256933 -0.03155427 -0.030901408 -0.022278246 0.018990241
-0.038209274 0.013594299 0.03138259 0.02379529 0.033255894 0.012850635 -0.0030306152 -0.03843398
-0.018565618 0.005566466 0.023664972 -0.018464439 0.0701126 0.012257021 -0.017037764 -0.00026474468
0.06284061 0.041064568 -0.07863783 -0.057426017 -0.017215243 -0.022792222 -0.029384075 -0.009918488
0.042177636 0.03354805 -0.0060048043 -0.007170271 -0.014775552 0.04843485 0.044518977 -0.009164513
0.02361076 -0.0068569942 0.010948298 -0.03037006 -0.0128620295 0.021810316 0.01582061 0.008593095
-0.028159764 -0.004992274 -0.05688334 0.014297978 0.064330645 0.0032184562 -0.026246997 0.025128081
-0.018176945 -0.010210582 0.014538615 0.013742091 0.034459725 0.1307474 0.086 -0.05068694
0.05762739 0.045550905 0.0005249021 0.00736389 -0.015235757 0.025990002 -0.018321704 0.002795271
-0.03603119 0.039626293 -0.025106525 -0.031551655 -0.001238603 0.012537967 0.0021436287 0.037200943
-0.015416204 -0.0005861048 -0.056304988 0.050732635 -0.019272413 0.013210174 -0.007944112 0.004186494
-0.010496395 -0.06299046 -0.24437308 -0.060895834 0.026362693 -0.0072950297 0.013543981 -0.12230662
-0.003022075 -0.053645972 -0.06682739 -0.06113556 0.0440826 0.05280383 -0.047625594 -0.060122702
0.056930013 -0.022768723 -0.004767284 -0.019125313 0.014722111 0.038961437 0.019682715 0.036738466
0.043526754 0.027356086 -0.047617674 0.016740452 0.067378335 0.024502618 -0.055561714 -0.05218871
0.031367607 -0.01814962 -0.023299213 0.010324671 -0.00094700785 -0.047130514 -0.028341165 0.0033789875
0.040335353 0.01841886 0.025057646 0.06122499 -0.0027718432 -0.051650085 0.013307407 0.014925143
0.008131657 -0.0060313866 0.0029694764 -0.002395562 -0.021593018 -0.033713926 0.009956668 -0.03956394
0.019665007 -0.03073706 -0.03314305 -0.011778533 -0.009903027 0.0045951437 -0.030625118 -0.014099896
-0.0035667652 -0.03917614 -0.013608124 0.037461657 0.022942849 -0.02592342 0.010110529 0.029390568
0.046089154 -0.01029946 -0.07436527 -0.0056517716 0.05459728 -0.0043519004 -0.026910925 0.05611938
0.034131102 -0.058677737 0.0064121615 0.017599799 0.018850775 -0.024384854 0.02375608 0.0021889193
-0.025475046 -0.009301748 0.027813738 -0.003151214 0.014999371 0.032827508 -0.017305378 -0.023004578
00000000: 3c1e abbd 52f9 babc 4e40 14bd 1ce1 4ebc
00000010: e6ff aa3c 70f3 7ebb 4982 033d d5c0 99bc
00000020: 9551 afbd b7bf 8bbc 4bff 4039 37c8 08bd
00000030: 8d2c ca3c fb5f c2bc 867d 383d c3b6 d43b
00000040: 5e2c 1d3d 885d 94bc 78c0 26bd eed4 dc3b
00000050: ee72 953d c6bd c93c 7c37 8d3c 7fa9 9d3b
00000060: 189c c83c d17a e23c f932 88bc ff7a 0abc
00000070: abf2 94bc 1bed 223b aa27 1f3d 4de3 febb
00000080: 92b7 abbd c1dc 343d 16ce 103d 55e3 16bd
00000090: 358c 603b a520 bcbc 6a5e edbc 5b14 8e3c
000000a0: 7744 1cbc bf66 91bd 852d 303d a8a5 823c
000000b0: cd94 bdbc 37da 6cbc 2d2a 35bc 2c7b 623b
000000c0: 8dfb 4f3d 9d46 16ba 93b9 9fbd 410b 073c
000000d0: 43af 0f3c b67b 7cbd aef3 9bbc 3560 583d
000000e0: 0341 58bc cb4e bebc d96d 20bd f5c3 05bc
000000f0: 92d2 76bc 06df a2bc b23b 663b b6c8 b73c
00000100: 4f54 963c c33a fbbc e986 913d 758c 1d3d
00000110: 51b5 0fbc f95d c23c 2ca7 06bc 325e ba3d
00000120: 0a73 60bd d0e0 1bbd 3f6d 31bc 9369 10bd
00000130: 0d3f 01bd f324 fdbc de80 b6bc 6c91 9b3c
00000140: 5481 1cbd 9fba 5e3c 088b 003d 57ee c23c
00000150: 5537 083d 788b 523c 499d 46bb f36c 1dbd
00000160: ec16 98bc e766 b63b 0bdd c13c bc42 97bc
00000170: 3297 8f3d acd1 483c c892 8bbc 6ecd 8ab9
00000180: 94b2 803d 5233 283d df0c a1bd 8b37 6bbd
00000190: fb06 8dbc c1b6 babc dfb6 f0bc 2781 22bc
000001a0: 75c2 2c3d ae69 093d f3c3 c4bb 98f4 eabb
000001b0: 2815 72bc 9f63 463d 8859 363d c126 16bc
000001c0: 5a6b c13c a3b0 e0bb 7d60 333c a2ca f8bc
000001d0: 43bb 52bc 8cab b23c 399a 813c 0dca 0c3c
000001e0: 4eaf e6bc 3b96 a3bb 81fe 68bd 1142 6a3c
000001f0: c9bf 833d bcec 523b f103 d7bc 68d9 cd3c
00000200: d1e7 94bc 494a 27bc 5f33 6e3c 8226 613c
00000210: a425 0d3d a5e2 053e c520 b03d 1c9d 4fbd
00000220: b30a 6c3d 9693 3a3d 9599 093a c94c f13b
00000230: 669f 79bc fce8 d43c 6617 96bc de30 373b
00000240: 7195 13bd 2e4f 223d 33ac cdbc 4f3c 01bd
00000250: 9f58 a2ba 0c6c 4d3c 1f7c 0c3b 0460 183d
00000260: 3f94 7cbc d4a4 19ba 0fa0 66bd 06cd 4f3d
00000270: 2ee1 9dbc 7c6f 583c 0528 02bc db2e 893b
00000280: 12f9 2bbc 2401 81bd f03c 7abe e96d 79bd
00000290: 93f6 d73c 250b efbb 93e7 5d3c e57b fabd
000002a0: 010e 46bb e1bb 5bbd ccdc 88bd 4869 7abd
000002b0: f58f 343d d448 583d 0e13 43bd 3943 76bd
000002c0: 722f 693d 7985 babc e036 9cbb b0ac 9cbc
000002d0: 0235 713c 0796 1f3d a53d a13c 137b 163d
000002e0: 1c49 323d df19 e03c c00a 43bd 4623 893c
000002f0: a7fd 893d b7b9 c83c ae94 63bd d4c3 55bd
00000300: 527b 003d 83ae 94bc fedd bebc cf28 293c
00000310: 9f40 78ba ed0b 41bd bb2b e8bc 0172 5d3b
00000320: af36 253d 26e3 963c b145 cd3c 0ec7 7a3d
00000330: d0a7 35bb 0a8f 53bd 4f07 5a3c 9688 743c
00000340: a43a 053c f0a2 c5bb 8c9b 423b dcfe 1cbb
00000350: d7e3 b0bc 9d17 0abd 4b21 233c cc0d 22bd
00000360: 8218 a13c 49cc fbbc 02c1 07bd c0fa 40bc
00000370: 4e40 22bc dc92 963b 87e1 fabc 4003 67bc
00000380: 64c0 69bb 2977 20bd 9cf4 5ebc 6571 193d
00000390: a4f2 bb3c 5a5d d4bc a2a6 253c 7dc4 f03c
000003a0: fbc7 3c3d 11bf 28bc d24c 98bd 7f32 b9bb
000003b0: 66a1 5f3d 639a 8ebb 4d74 dcbc 6fdd 653d
000003c0: 0ecd 0b3d 1158 70bd 1c1d d23b 742d 903c
000003d0: f16c 9a3c bfc2 c7bc 1c9c c23c f973 0f3b
000003e0: 0bb1 d0bc 5c66 18bc a3d9 e33c 9984 4ebb
000003f0: ecbf 753c 2376 063d 02c4 8dbc 1974 bcbc

bias f4 [128]
-0.03856629 -0.011593517 0.030903678 0.00080804795 0.046840597 -0.025003444 -0.030187802 0.0015654672
0.038912803 0.024617909 -0.0002393118 -0.06216339 -0.032756772 0.02981595 0.02743899 0.023489727
-0.008485732 0.017151061 -0.017810358 0.045366295 0.045919836 0.07226181 -0.02513829 -0.025707329
0.002543969 -0.07259779 0.0050999 0.011666966 -0.051953364 -0.004429801 0.032146376 -0.028842466
-0.036070053 -0.026872346 -0.0025068447 0.005707097 0.006600681 -0.044636205 -0.029877495 0.011006847
0.052820344 0.05117525 -0.016603397 0.008050036 0.050914522 -0.01596051 -0.008886702 -0.01852754
0.027561584 -0.017878117 0.024783276 0.03758709 -0.015137365 -0.037658524 0.032755073 0.021979682
0.025469216 0.008246421 -0.010848593 0.03273666 0.013266382 0.0239011 0.0222026 0.011193201
0.034194257 -0.02457538 0.04751915 -0.011416432 -0.022244511 -0.0084988335 0.013686686 0.035353895
0.02484105 0.030854374 0.042946823 0.017448772 -0.045623045 0.03382233 0.027214477 0.008110237
0.04385109 -0.0435067 0.034314323 -0.0076818676 -0.0061550806 0.017988818 -0.035049047 0.0008421665
-0.022861782 -0.021475838 0.042222597 0.013593619 0.042485155 -0.030523872 -0.0036663932 0.017202808
-0.0073144115 -0.031568486 -0.0047818166 -0.008553389 0.01392403 -0.028858848 0.031066071 0.009534965
-0.015488251 0.02526039 -0.023864111 0.059200414 -0.031348094 -0.04957157 -0.0013965787 0.007108218
-0.0018293897 -0.012553627 -0.02640168 -0.011052809 0.049025748 0.016109115 0.02763576 0.03471635
-0.016798986 -0.027540684 -0.00785759 0.04068097 -0.012088719 -0.005879484 0.01909374 -0.0179783
00000000: b0f7 1dbd bcf2 3dbc b629 fd3c 2ed3 533a
00000010: eddb 3f3d 06d4 ccbc 694c f7bc 5d30 cd3a
00000020: 0863 1f3d 7fab c93c c6ef 7ab9 0a9f 7ebd
00000030: f72b 06bd 9440 f43c bcc7 e03c 876d c03c
00000040: bd07 0bbc 6280 8c3c 07e7 91bc 02d2 393d
00000050: 7016 3c3d 00fe 933d d1ee cdbc 2d98 d2bc
00000060: b8b8 263b 26ae 94bd 101d a73b cd26 3f3c
00000070: 0dcd 54bd dd27 91bb ebab 033d 0947 ecbc
00000080: 31be 13bd 6523 dcbc e049 24bb 9902 bb3b
00000090: 874a d83b 74d4 36bd a6c1 f4bc 1056 343c
000000a0: 255a 583d 249d 513d d903 88bc 4ce4 033c
000000b0: bf8b 503d 9ebf 82bc 8899 11bc 11c7 97bc
000000c0: d5c8 e13c 2175 92bc 4c06 cb3c ecf4 193d
000000d0: b602 78bc d33f 1abd 2f2a 063d bc0e b43c
000000e0: d1a4 d03c ff1b 073c 4cbe 31bc e016 063d
000000f0: 3d5b 593c 3dcc c33c 3ae2 b53c b063 373c
00000100: 470f 0c3d 4f52 c9bc 71a3 423d fd0b 3bbc
00000110: 1f3a b6bc b13e 0bbc 1f3e 603c 3fcf 103d
00000120: 757f cb3c 50c2 fc3c 02e9 2f3d baf0 8e3c
00000130: 3bdf 3abd 4989 0a3d e5f0 de3c cde0 043c
00000140: 339d 333d 1534 32bd 2d8d 0c3d 2db8 fbbb
00000150: 8fb0 c9bb 495d 933c 978f 0fbd d6c4 5c3a
00000160: a248 bbbc 19ee afbc 9af1 2c3d c5b7 5e3c
00000170: ea04 2e3d 330d fabc df47 70bb e7ec 8c3c
00000180: bbad efbb f54d 01bd c9b0 9cbb 8423 0cbc
00000190: 9d21 643c 6469 ecbc 467e fe3c 8b38 1c3c
000001a0: 6fc2 7dbc e1ee ce3c ab7e c3bc 227c 723d
000001b0: dc66 00bd 8f0b 4bbd 680d b7ba 0eec e83b
000001c0: 22c8 efba baad 4dbc 5648 d8bc d716 35bc
000001d0: 39cf 483d 43f7 833c 6464 e23c bb32 0e3d
000001e0: 079e 89bc 009d e1bc 1fbd 00bc 17a1 263d
000001f0: c30f 46bc b0a8 c0bb 7a6a 9c3c 3a47 93bc

weight f4 [64, 512]
0.009880009 0.037355393 -0.0021574222 0.015553093 0.032911047 -0.033867043 -0.017665219 -0.007813397
0.022804862 -0.079927854 0.007933145 0.026449164 -0.03532968 0.033769198 -0.006194299 -0.06167134
0.020226883 0.042969145 -0.2683774 0.07614922 -0.0059618293 0.024761347 -0.11154561 -0.014522935
0.15632786 -0.044988114 0.02677357 -0.0629073 0.0038712318 0.040856246 -0.11310716 0.05726402
0.036309917 0.031384323 -0.0031353328 -0.035684686 -0.041273594 0.0012367221 0.03498475 0.014452166
-0.026149403 0.013033976 -0.010717322 -0.00913004 0.015614139 0.026977155 -0.018432574 -0.048433878
0.004492361 0.023101993 0.0322264 -0.050245166 0.007832814 0.0031626525 0.053594287 -0.045985293
0.019446736 0.0132972505 0.030091355 0.0103296805 -0.006658977 -0.010180036 0.06938229 -0.07187889
-0.054572035 0.0012591921 0.052748546 0.004949272 -0.035030425 0.03455138 0.07566627 -0.053704683
-0.048204158 0.0019619516 -0.01262413 -0.009884982 -0.001355435 -0.016625566 0.04008358 -0.011361184
-0.02652538 -0.032241642 0.06741535 0.0058739986 -0.04029013 -0.024901804 0.047154427 -0.0052600997
0.06750425 -0.042305633 0.023387374 -0.025884075 0.045500573 -0.030014755 0.03621609 -0.043845788
0.03804149 -0.060758248 0.025547354 0.0069041364 0.03257975 0.049171243 -0.006409862 -0.10153351
0.03137195 -0.012769943 0.07762898 -0.029928442 0.0070360233 0.0008552565 0.0031521628 -0.058127847
-0.020745581 0.017760312 -0.15674981 0.044579323 0.016009646 0.0045197005 -0.057927493 0.038585834
0.018036082 0.03506153 0.044815276 -0.1088881 0.013936146 -0.02591807 0.06854184 -0.027978571
-0.032133374 0.047924895 0.040994186 -0.090694636 0.0017063941 0.031001983 0.0097138155 -0.011488793
-0.041188855 -0.0518965 0.026524557 0.015905842 -0.053002276 0.008284788 0.02318403 0.013572373
0.033401076 -0.023902364 -0.04860191 0.0332926 -0.0040671607 -0.020529808 -0.025084179 -0.0001045397
0.021334829 0.07146071 -0.00085365406 -0.08502521 -0.06325385 0.024743833 0.0836258 -0.071565025
0.029353812 -0.040351924 0.039640643 -0.011373004 0.0653957 -0.009112757 -0.037300527 -0.054376807
0.03913632 0.04004569 0.035060447 0.030803164 -0.066806704 0.02385598 0.011488072 -0.05977648
-0.065892905 0.009548671 -0.0444079 0.034729503 0.1050766 0.071929246 -0.07485953 -0.0068541183
0.06297235 0.07496153 0.00532704 -0.17269608 0.015274998 0.01362074 -0.016864406 0.003577926
0.070155606 -0.04490155 0.037480995 -0.06623715 0.023189925 0.011732174 0.021611856 0.0061121676
-0.01080339 -0.07345552 0.03730273 0.006719801 -0.0014071855 -0.013325372 -0.0135042025 -0.037343077
0.027800359 -0.0031742612 -0.05770299 -0.24512419 -0.032119997 -0.002667727 0.027575439 0.018673534
0.022863993 -0.0006573613 0.0037049975 0.011371917 -0.0058092643 0.12973316 -0.051346857 -0.017094798
0.042379644 -0.02932666 -0.015443411 -0.01474373 0.019697467 0.0072966553 0.059228826 -0.0983588
-0.02665069 0.018722361 -0.06211482 -0.04217385 0.07745568 -0.06972834 0.029882489 -0.035906993
0.0011463822 0.042476952 0.011241961 -0.023859618 -0.051744126 -0.01119944 0.024364144 -0.0021321094
-0.020334102 0.034734443 -0.0057902895 -0.05808887 -0.003171206 0.003195005 -0.011911293 -0.031084174
00000000: c3df 213c f801 193d 8a63 0dbb 66d2 7e3c
00000010: bccd 063d 2bb8 0abd a6b6 90bc c303 00bc
00000020: 43d1 ba3c 37b1 a3bd 06fa 013c ebab d83c
00000030: dbb5 10bd 9251 0a3d 8cf9 cabb 169b 7cbd
00000040: d9b2 a53c 6a00 303d c368 89be 1ff4 9b3d
00000050: 735b c3bb 4fd8 ca3c 0672 e4bd 9bf1 6dbc
00000060: 6914 203e 7545 38bd 3f54 db3c 8bd5 80bd
00000070: 7eb4 7d3b e158 273d baa4 e7bd ad8d 6a3d
00000080: b5b9 143d d98c 003d 287a 4dbb 1b2a 12bd
00000090: 800e 29bd 8219 a23a 2b4c 0f3d c7c8 6c3c
000000a0: 4637 d6bc 758c 553c b597 2fbc 2a96 15bc
000000b0: 72d2 7f3c 32ff dc3c e9ff 96bc 9a62 46bd
000000c0: a834 933b 6440 bd3c d4ff 033d e0cd 4dbd
000000d0: 3455 003c 8144 4f3b af85 5b3d 135b 3cbd
000000e0: c34e 9f3c b6dc 593c 2582 f63c d23d 293c
000000f0: 8c33 dabb 2aca 26bc 4d18 8e3d 3d35 93bd
00000100: ed86 5fbd 7a0b a53a dc0e 583d 812d a23b
00000110: 107c 0fbd bf85 0d3d ebf6 9a3d 71f9 5bbd
00000120: b971 45bd 1694 003b 70d5 4ebc 9ff4 21bc
00000130: daa8 b1ba 5732 88bc ae2e 243d 4224 3abc
00000140: c14b d9bc d00f 04bd 0f11 8a3d ac7a c03b
00000150: 4307 25bd defe cbbc 0025 413d ea5c acbb
00000160: ab3f 8a3d ac48 2dbd e196 bf3c d70a d4bc
00000170: cf5e 3a3d 81e1 f5bc 5357 143d a497 33bd
00000180: 65d1 1b3d a4dd 78bd af48 d13c 183c e23b
00000190: 5872 053d c967 493d d209 d2bb cdf0 cfbd
000001a0: e07f 003d 0639 51bc f1fb 9e3d 7e2c f5bc
000001b0: 718e e63b 4b33 603a 8494 4e3b 7717 6ebd
000001c0: a3f2 a9bc 137e 913c 0683 20be cf98 363d
000001d0: a926 833c ff19 943b 6145 6dbd 2e0c 1e3d
000001e0: 68c0 933c ae9c 0f3d 3990 373d b900 dfbd
000001f0: 6f54 643c 2252 d4bc aa5f 8c3d 5133 e5bc
00000200: 499e 03bd e54c 443d 85e9 273d 1cbe b9bd
00000210: 16a9 df3a dff7 fd3c b226 1f3c 7e3b 3cbc
00000220: a5b5 28bd 6d91 54bd 074a d93c f84c 823c
00000230: ea18 59bd ebbc 073c 6fec bd3c a95e 5e3c
00000240: 91cf 083d e4ce c3bc cc12 47bd d25d 083d
00000250: d145 85bb 212e a8bc 567d cdbc 533c dbb8
00000260: 61c6 ae3c fe59 923d c1c7 5fba b321 aebd
00000270: 3c8b 81bd 94b3 ca3c 0144 ab3d af90 92bd
00000280: 6877 f03c 0f48 25bd 3a5e 223d d655 3abc
00000290: 2eee 853d ac4d 15bc 70c8 18bd 37ba 5ebd
000002a0: 684d 203d f306 243d 8b9b 0f3d eb56 fc3c
000002b0: f4d1 88bd 9e6d c33c 7738 3c3c 2fd8 74bd
000002c0: dcf2 86bd 0772 1c3c 0fe5 35bd 8640 0e3d
000002d0: 6732 d73d a44f 933d f44f 99bd 8398 e0bb
000002e0: a6f7 803d 6e85 993d 738e ae3b 3ed7 30be
000002f0: fc43 7a3c 8629 5f3c 3927 8abc a37b 6a3b
00000300: bead 8f3d b0ea 37bd ac85 193d 58a7 87bd
00000310: ccf8 bd3c 4e38 403c 590b b13c 9448 c83b
00000320: b400 31bc d96f 96bd bfca 183d c731 dc3b
00000330: 4f71 b8ba a952 5abc bb40 5dbc 0ef5 18bd
00000340: 94bd e33c 4407 50bb f859 6cbd d601 7bbe
00000350: 4290 03bd 08d5 2ebb e3e5 e13c 3df9 983c
00000360: 454d bb3c c552 2cba 8bcf 723b 4751 3a3c
00000370: a45b bebb c5d8 043e 1551 52bd 640a 8cbc
00000380: 4796 2d3d 773e f0bc 5c06 7dbc b08f 71bc
00000390: 955c a13c c818 ef3b ed99 723d 5770 c9bd
000003a0: 8c52 dabc a35f 993c 1c6c 7ebd 7dbe 2cbd
000003b0: 15a1 9e3d bbcd 8ebd 1fcc f43c 3613 13bd
000003c0: 3442 963a 50fc 2d3d 3430 383c 3f75 c3bc
000003d0: a6f1 53bd db7d 37bc 5097 c73c dcba 0bbb
000003e0: b493 a6bc b445 0e3d 78bc bdbb 98ee 6dbd
000003f0: 02d4 4fbb 4a63 513b 9527 43bc 3da4 febc

bias f4 [64]
-0.047307216 0.00059209514 0.021393443 -0.026131034 0.017132673 -0.009943644 0.02732194 -0.014888815
-0.03203318 0.040694844 -0.00019055197 -0.042854644 -0.046949353 0.03337664 -0.044495147 0.04072245
-0.03626622 -0.036331814 -0.046191886 -0.014537487 0.012366605 -0.01355587 0.00116762 0.03783357
0.0048318985 0.004512237 -0.01626926 -0.0018533444 -0.012839049 -0.028548373 0.04718581 -0.021771915
0.0074370145 -0.030471079 0.030572824 -0.0061646244 0.01686151 -0.042303458 -0.031837147 0.00994505
0.006332529 0.015539608 -0.025832783 -0.010493032 -0.04077812 -0.020178797 0.03567578 0.036445267
0.026980571 0.014756868 0.02077451 0.01856778 0.02043791 -0.00327123 -0.03407136 -0.026687715
0.010920185 0.018341536 0.010386147 0.025580073 0.017887421 -0.02164354 0.029092724 0.0018717307
00000000: 36c5 41bd d536 1b3a 4d41 af3c c010 d6bc
00000010: d259 8c3c aaea 22bc 43d2 df3c 37f0 73bc
00000020: 3935 03bd a3af 263d e8ce 47b9 5a88 2fbd
00000030: f74d 40bd f2b5 083d 8b40 36bd 95cc 263d
00000040: e38b 14bd abd0 14bd b433 3dbd a42e 6ebc
00000050: 4d9d 4a3c 7119 5ebc d30a 993a 60f7 1a3d
00000060: e754 9e3b 63db 933b 1c47 85bc ebeb f2ba
00000070: e05a 52bc 47de e9bc e845 413d 045b b2bc
00000080: 33b2 f33b 7c9e f9bc dc73 fa3c 9e00 cabb
00000090: 2621 8a3c 6446 2dbd ab67 02bd 90f0 223c
000000a0: 1a81 cf3b d799 7e3c 469f d3bc f7ea 2bbc
000000b0: f506 27bd 014e a5bc c420 123d a247 153d
000000c0: 5c06 dd3c cac6 713c 4e2f aa3c 751b 983c
000000d0: 676d a73c 2262 56bb 698e 0bbd 32a0 dabc
000000e0: 93ea 323c fd40 963c a82a 2a3c 4d8d d13c
000000f0: a488 923c cb4d b1bc dd53 ee3c dc54 f53a

weight f4 [64, 64]
0.11322146 -0.08860376 0.052422266 0.07441652 0.11396062 0.009217852 0.015542408 -0.0047940454
0.043515764 0.08685783 -0.0089989025 -0.07062707 -0.11610714 0.08056986 -0.026679209 -0.053841315
-0.01693743 0.059228063 -0.03591358 -0.057357118 0.015906358 0.14381221 -0.022434765 -0.07262921
0.06070319 -0.116917 -0.059340265 0.06814231 -0.06126939 -0.07634162 -0.08102001 0.055162754
0.10819747 -0.116542965 0.12733962 0.05123146 -0.14900433 0.023605596 0.09114622 0.08665656
0.014727297 0.08043334 -0.08292133 0.10033402 -0.095334925 0.115273654 0.122013666 0.19154096
-0.014183 -0.14613228 -0.01125507 0.10899232 -0.093882784 -0.07519017 -0.008943233 -0.034860317
0.026211826 -0.038945254 -0.0442239 0.14334902 -0.07568687 0.041214604 -0.0002582122 -0.08974326
-0.046037868 -0.09661141 0.00939025 0.027902499 0.04137847 -0.09736143 -0.012181118 -0.05781275
-0.043607473 -0.08262649 -0.116042316 0.06571837 -0.08931722 -0.021027416 0.008236989 0.039751485
0.049506977 -0.111441344 0.07037951 0.020642161 0.06920634 -0.005699888 0.07131995 0.0880149
-0.02432181 0.07737507 0.055092603 0.04335685 -0.01727572 0.10177675 -0.11890219 -0.09198922
-0.11077027 0.009826705 0.077938855 0.009672537 0.067332566 0.11230102 -0.11802602 -0.08306894
0.05147162 0.110047504 -0.0025933832 0.05310552 -0.049882486 -0.007568389 -0.08622493 0.01534912
0.036518827 -0.05704242 -0.011834905 -0.12426031 0.09842484 0.018845841 0.10044521 -0.0057481676
0.09524645 0.0843828 0.07635194 -0.11466941 -0.08580446 -0.06057088 -0.0002168566 -0.12065931
-0.0059748744 -0.12978104 0.04805098 0.073014885 -0.017213572 0.10204725 -0.02461763 -0.02987586
0.12883647 -0.041460756 0.108292446 -0.056574747 0.10906246 -0.058644153 -0.021795645 -0.104375854
0.037320226 0.044127926 -0.07917301 0.043906875 -0.063519225 -0.05922408 -0.0030631274 0.0025855452
0.014937623 -0.07939568 0.111903384 0.028960705 0.06514045 0.09844327 -0.086207286 -0.06519773
-0.056616973 -0.13303809 0.097920276 0.110016674 0.09539279 0.057568833 -0.14357248 -0.03331794
-0.028202444 -0.08030969 -0.0031782389 -0.031604394 0.124911815 0.02993624 -0.010018095 -0.11745058
-0.17667516 -0.035607114 -0.07615624 -0.11020366 -0.0035533553 -0.105564184 -0.06860779 0.06487685
0.07897875 0.043978374 -0.022699358 -0.010599717 0.03530933 -0.1114641 0.09019877 -0.06666418
-0.008347505 -0.051929828 -0.011294474 -0.006536156 -0.13733196 0.019327706 0.12887684 0.07424909
-0.09472543 -0.026302325 -0.07050915 0.097052544 0.1540873 0.07583794 0.09280738 -0.061841764
0.019308887 -0.07536753 -0.015793592 0.038616646 -0.08073015 -0.21693063 -0.11801243 -0.06774544
-0.09038888 0.019864859 0.11836949 0.08727734 0.105810754 0.014657557 -0.095456585 0.17614745
-0.120793015 0.10887361 -0.094575636 -0.107537195 0.09035202 -0.012097438 0.12256784 -0.014958579
0.10786055 -0.0716881 -0.094648674 0.12297809 0.08372665 0.040553242 0.043582823 -0.27880347
-0.084854685 0.056054 0.084123224 0.037091076 -0.12565385 0.07593288 -0.08340432 0.097535685
0.052692916 0.010970715 0.047243323 -0.14336477 -0.071891315 0.053333092 -0.13520348 -0.05360367
00000000: a7e0 e73d e375 b5bd bbb8 563d b067 983d
00000010: 2f64 e93d 7906 173c 96a5 7e3c 5e17 9dbb
00000020: 963d 323d 85e2 b13d 2270 13bc eda4 90bd
00000030: 95c9 edbd d001 a53d 5b8e dabc b688 5cbd
00000040: 5dc0 8abc 2099 723d 1e1a 13bd 4cef 6abd
00000050: 0d4e 823c 8243 133e 1dc9 b7bc a0be 94bd
00000060: e8a3 783d 2e72 efbd c70e 73bd 328e 8b3d
00000070: 9df5 7abd ff58 9cbd d2ed a5bd 57f2 613d
00000080: a396 dd3d 14ae eebd 5165 023e 14d8 513d
00000090: 9794 18be 8660 c13c dfaa ba3d ff78 b13d
000000a0: c34a 713c 3cba a43d a9d2 a9bd ec7b cd3d
000000b0: f53e c3bd 9814 ec3d 4de2 f93d 5023 443e
000000c0: d05f 68bc b3a3 15be 2f67 38bc 5e37 df3d
000000d0: 9e45 c0bd 4efd 99bd a386 12bc b1c9 0ebd
000000e0: 2fba d63c 0f85 1fbd 1f24 35bd 16ca 123e
000000f0: b801 9bbd a5d0 283d a860 87b9 50cb b7bd
00000100: 3492 3cbd 34dc c5bd 90d9 193c c893 e43c
00000110: 787c 293d 6e65 c7bd 5093 47bc 10cd 6cbd
00000120: c09d 32bd 1438 a9bd 98a7 edbd 5a97 863d
00000130: f2eb b6bd b041 acbc 70f4 063c 74d2 223d
00000140: d4c7 4a3d 5c3b e4bd 2223 903d c019 a93c
00000150: 0ebc 8d3d 20c6 babb 3210 923d 2841 b43d
00000160: 883e c7bc d276 9e3d c8a8 613d f496 313d
00000170: d085 8dbc 5470 d03d fe82 f3bd d864 bcbd
00000180: 86db e2bd 3000 213c 689e 9f3d 9079 1e3c
00000190: a8e5 893d 14fe e53d a0b7 f1bd 0c20 aabd
000001a0: e8d3 523d 9660 e13d c0f5 29bb 2c85 593d
000001b0: 9451 4cbd 4000 f8bb b296 b0bd e07a 7b3c
000001c0: c494 153d 50a5 69bd 30e7 41bc 307c febd
000001d0: f692 c93d 9862 9a3c 38b6 cd3d 205b bcbb
000001e0: 9210 c33d e4d0 ac3d 685e 9c3d ccd7 eabd
000001f0: 40ba afbd 2c19 78bd 0064 63b9 3a1c f7bd
00000200: e1c8 c3bb 52e5 04be 1bd1 443d d488 953d
00000210: 7a03 8dbc 26fe d03d e9aa c9bc 38be f4bc
00000220: b5ed 033e c1d2 29bd 6ec8 dd3d ecba 67bd
00000230: 245c df3d da34 70bd c88c b2bc 02c3 d5bd
00000240: 18dd 183d 7cbf 343d 7625 a2bd b2d7 333d
00000250: 5e16 82bd f394 72bd c0be 48bb 4072 293b
00000260: efbc 743c 349a a2bd 9a2d e53d 003f ed3c
00000270: 5b68 853d a09c c93d 728d b0bd 6386 85bd
00000280: 33e7 67bd 233b 08be 6d8a c83d 6c50 e13d
00000290: 4c5d c33d 4ccd 6b3d aa04 13be 6478 08bd
000002a0: d008 e7bc 6879 a4bd 004a 50bb 9c73 01bd
000002b0: c4d1 ff3d d83c f53c f022 24bc ee89 f0bd
000002c0: 55ea 34be c4d8 11bd cef7 9bbd 75b2 e1bd
000002d0: 69df 68bb 0932 d8bd 3e82 8cbd 27de 843d
000002e0: 9cbf a13d ab22 343d 01f4 b9bc 6faa 2dbc
000002f0: 84a0 103d 4a47 e4bd 22ba b83d 3b87 88bd
00000300: f9c3 08bc 5fb4 54bd 750c 39bc 402d d6bb
00000310: c0a0 0cbe 2355 9e3c 4af8 033e e80f 983d
00000320: 68ff c1bd f977 d7bc 1a67 90bd 7cc3 c63d
00000330: 10c9 1d3e ec50 9b3d cc11 be3d ca4d 7dbd
00000340: ac2d 9e3c 4b5a 9abd 9061 81bc 7d2c 1e3d
00000350: d955 a5bd 1023 5ebe 80b0 f1bd 1fbe 8abd
00000360: ce1d b9bd a1bb a23c b46b f23d 76be b23d
00000370: 4fb3 d83d 4026 703c be7e c3bd ff5f 343e
00000380: 5462 f7bd 21f9 de3d dfb0 c1bd 763c dcbd
00000390: 7b0a b93d 5534 46bc d904 fb3d d414 75bc
000003a0: fee5 dc3d 36d1 92bd 2ad7 c1bd f0db fb3d
000003b0: e178 ab3d 281b 263d e783 323d 54bf 8ebe
000003c0: 4bc8 adbd e198 653d cc48 ac3d d0ec 173d
000003d0: 67ab 00be b382 9b3d e2cf aabd cac0 c73d
000003e0: 87d4 573d 84be 333c 3782 413d 37ce 12be
000003f0: c13b 93bd cd73 5a3d c872 0abe 868f 5bbd

bias f4 [64]
0.09825225 -0.07258724 -0.062927924 0.09801723 -0.10440005 0.08079316 0.065042846 0.1109973
-0.0830248 0.022780618 0.08790428 0.03892629 0.09355109 0.12243067 0.06447997 0.083425306
0.025008725 0.043331493 0.1282101 -0.03928245 -0.013634563 0.019815773 -0.0915496 0.046909142
0.101138204 -0.09835611 0.034337584 -0.06655928 -0.10183641 -0.044117033 -0.03509978 0.09636809
0.068857625 -0.07353875 0.056521036 0.087532386 -0.025837496 -0.07436849 0.08857418 -0.018427225
-0.04259249 0.06615843 -0.08211107 -0.14001796 0.060631886 -0.053824097 -0.117077276 -0.02406615
-0.112635955 -0.0041047004 -0.11924055 -0.10782451 0.12898459 0.09395416 -0.0043220827 0.004479295
-0.11148777 0.053432375 0.044119947 0.00278227 0.033639282 -0.07647963 -0.06838524 0.018781213
00000000: 7a38 c93d 9ea8 94bd 5be0 80bd 42bd c83d
00000010: b2cf d5bd e276 a53d 2f35 853d 8d52 e33d
00000020: e808 aabd 6b9e ba3c 2907 b43d 2c71 1f3d
00000030: b797 bf3d eebc fa3d 130e 843d e3da aa3d
00000040: 19df cc3c 5d7c 313d 8249 033e a2e6 20bd
00000050: 8163 5fbc b054 a23c 5b7e bbbd cd23 403d
00000060: 8c21 cf3d ee6e c9bd 91a5 0c3d 3b50 88bd
00000070: 9c8f d0bd 10b4 34bd c9c4 0fbd a25c c53d
00000080: 3a05 8d3d 7c9b 96bd 9a82 673d 2e44 b33d
00000090: 28a9 d3bc 824e 98bd 6166 b53d b1f4 96bc
000000a0: 7675 2ebd 127e 873d d929 a8bd de60 0fbe
000000b0: 2459 783d a876 5cbd 36c6 efbd 6026 c5bc
000000c0: aead e6bd b980 86bb 6434 f4bd 19d3 dcbd
000000d0: 8914 043e 0a6b c03d 42a0 8dbb 0dc7 923b
000000e0: b353 e4bd e8db 5a3d 1eb7 343d bf56 363b
000000f0: 58c9 093d 5aa1 9cbd 900d 8cbd 0fdb 993c

weight f4 [3, 64]
-0.05216003 0.06399411 0.3320668 -0.11716306 -0.057722826 -0.09969677 0.034757756 0.08224946
-0.3105505 0.049698394 -0.076751165 -0.10402465 0.14091384 0.17782196 0.048557922 0.024538603
-0.13950373 0.03483796 0.032173637 0.13442358 -0.169104 -0.099272266 -0.30362165 -0.0063965423
-0.06797043 0.10223281 -0.09893243 0.16714291 -0.19709495 -0.10862994 0.054999273 0.015130601
0.041905366 -0.05453718 -0.089197114 -0.18104884 0.07889813 -0.13579397 -0.5368676 0.02308252
0.044015285 0.00890162 0.021613074 -0.16792719 0.08155656 0.10908509 0.018040314 -0.003918581
-0.04265101 -0.0019552405 0.05406427 0.18278322 0.13861008 -0.13572215 -0.040959425 0.09647939
-0.08408948 -0.04805907 -0.10953766 0.02255567 -0.015457508 0.048635885 0.15712437 0.21842906
-0.017585084 -0.06344421 -0.052814256 -0.12505886 -0.09760634 -0.06523412 0.3043501 0.1450663
1.0641458 -0.088154055 -0.09240419 -0.011103345 -0.21947595 0.12689966 0.14627326 -0.044027485
0.09588654 0.08579405 0.21709555 0.30081823 -0.10646427 -0.16982886 -0.19707099 0.11767232
-0.127405 -0.036496826 -0.09424707 0.08111474 -0.11745517 -0.07731432 0.0597915 0.0026303555
-0.24953768 0.16686259 -0.12982032 0.027695274 -0.09385243 -0.014714847 0.23008873 0.9299516
0.12477874 0.18243171 -0.05924288 -0.2524185 0.041572783 0.01022543 0.046729147 -0.48448715
-0.09640367 -0.06978259 -0.018874975 -0.23241574 0.06859896 0.055926334 -0.11210467 -0.07183397
0.069094755 -0.12868963 0.10585363 0.01626909 0.34693158 0.13177256 -0.29487732 0.05569176
0.0702621 0.01068379 0.09277206 0.3892012 0.05784055 0.09415213 -0.25208563 -0.09476898
1.7532916 -0.06625952 0.04129417 -0.015282652 -0.97009254 0.006962266 0.031322572 0.060173824
0.015317196 0.121872276 -0.15588385 0.12197109 0.015422782 -0.28359598 -0.8386361 -0.12783223
0.4239516 -0.08961262 0.10496945 -0.060040966 -0.26414478 0.053861305 -0.106640786 -0.058415115
0.09970861 -0.17612568 -0.0821028 -0.052529182 -0.10061219 -0.028550845 -0.13122155 0.12473676
0.015099892 0.32572404 -0.07010974 -1.6538827 -0.081895225 -0.061861496 0.017903507 -0.14271192
0.44273627 0.027146718 -0.11523473 0.07507945 0.08884665 -0.03830347 -0.15594037 -0.08791759
0.012942757 0.07992526 -0.15477262 0.0041906633 0.17728242 0.13456172 -0.035576545 0.035007667
00000000: c1a5 55bd 580f 833d a904 aa3e 30f3 efbd
00000010: c56e 6cbd d22d ccbd 265e 0e3d 6872 a83d
00000020: 7a00 9fbe 8b90 4b3d b72f 9dbd e00a d5bd
00000030: b84b 103e f616 363e ace4 463d 2e05 c93c
00000040: 11da 0ebe 40b2 0e3d 81c8 033d 56a6 093e
00000050: 9929 2dbe 424f cbbd 4c74 9bbe 169a d1bb
00000060: 1534 8bbd 6f5f d13d 169d cabd 8327 2b3e
00000070: 42d3 49be 6079 debd eb46 613d 57e6 773c
00000080: f6a4 2b3d 6162 5fbd faac b6bd de64 39be
00000090: 5895 a13d 930d 0bbe 2870 09bf 8e17 bd3c
000000a0: 5f49 343d 1ad8 113c e70d b13c 1bf5 2bbe
000000b0: 2007 a73d 0168 df3d 48c9 933c 7167 80bb
000000c0: d3b2 2ebd 7e23 00bb 7f72 5d3d 862b 3b3e
000000d0: cdef 0d3e bffa 0abe 12c5 27bd fd96 c53d
000000e0: 1b37 acbd 96d9 44bd 4855 e0bd abc6 b83c
000000f0: 7d41 7dbc 6c36 473d 36e5 203e deab 5f3e
00000100: 980e 90bc 0aef 81bd c353 58bd 6e0f 00be
00000110: d5e5 c7bd 7799 85bd c7d3 9b3e 438c 143e
00000120: ee35 883f 1d8a b4bd 683e bdbd ceea 35bc
00000130: 4ebe 60be fcf1 013e a8c8 153e 2a56 34bd
00000140: 2a60 c43d cab4 af3d 4c4e 5e3e d904 9a3e
00000150: f009 dabd 9ee7 2dbe facc 49be 2ffe f03d
00000160: 7576 02be b27d 15bd 9c04 c1bd 7c1f a63d
00000170: 568c f0bd f856 9ebd efe7 743d 0b62 2c3b
00000180: ce86 7fbe 07de 2a3e 9eef 04be 33e1 e23c
00000190: b435 c0bd 8b16 71bc 619c 6b3e 4f11 6e3f
000001a0: ff8b ff3d 61cf 3a3e aaa8 72bd ff3c 81be
000001b0: 3948 2a3d 9088 273c 1067 3f3d b30e f8be
000001c0: 4a6f c5bd 2dea 8ebd b19f 9abc 64fe 6dbe
000001d0: 9d7d 8c3d 0313 653d 2297 e5bd b01d 93bd
000001e0: 8d81 8d3d 37c7 03be cac9 d83d c146 853c
000001f0: 04a1 b13e 63ef 063e 29fa 96be 0b1d 643d
00000200: 93e5 8f3d 100b 2f3c 47ff bd3d 6145 c73e
00000210: 36ea 6c3d d5d2 c03d 5e11 81be 3d16 c2bd
00000220: dc6b e03f 12b3 87bd 1324 293d 1764 7abc
00000230: fc57 78bf b823 e43b 194c 003d d478 763d
00000240: faf4 7a3c 2c98 f93d 04a0 1fbe fbcb f93d
00000250: d6af 7c3c 7e33 91be dbb0 56bf 74e6 02be
00000260: 2f10 d93e d286 b7bd 39fa d63d 84ed 75bd
00000270: fc3d 87be ac9d 5c3d 7c66 dabd b044 6fbd
00000280: 0734 cc3d 4a5a 34be 8325 a8bd d728 57bd
00000290: c40d cebd 76e3 e9bc f15e 06be fd75 ff3d
000002a0: 8a65 773c 4dc5 a63e b295 8fbd 6eb2 d3bf
000002b0: afb8 a7bd 7b62 7dbd 60aa 923c 1323 12be
000002c0: 54ae e23e cb62 de3c 3000 ecbd 41c3 993d
000002d0: 3cf5 b53d 19e4 1cbd d5ae 1fbe 230e b4bd
000002e0: dc0d 543c dbaf a33d b77c 1ebe d551 893b
000002f0: 8689 353e 8cca 093e b6b8 11bd 3364 0f3d

bias f4 [3]
0.0727755 0.11300789 0.037747897
00000000: 520b 953d ae70 e73d 8a9d 1a3d
