student_policy_1000eps_10epochs.pt (torch, 646258 bytes, 12 tensors)

cnn.0.weight f4 [32, 8, 8, 8]
0	0xb9a0e699	-0.00030689387
1	0x3b215111	0.002461497
2	0xbcbf8b87	-0.023381962
3	0x3de30a07	0.11085897
4	0x3da2a3fa	0.07941432
5	0x3d64c5b4	0.055852607
6	0xbb8a97d7	-0.0042295265
7	0xbde6ab17	-0.112631015
8	0xbd2f7185	-0.04283287
9	0xbcfe0065	-0.031006048
10	0x3c3cf9c9	0.011534163
11	0x3d9d642d	0.07685123
12	0x3d042a6a	0.03226701
13	0xbd61902f	-0.055069145
14	0xbe09c630	-0.13454509
15	0xbe44f098	-0.19232404
16	0x3b08a59c	0.0020850664
17	0xbc834ef7	-0.016028864
18	0x3d06b8f6	0.032891236
19	0x3d7b0364	0.06128253
20	0x3b3102b0	0.0027009659
21	0xbdd136df	-0.10215544
22	0xbe13193d	-0.14365096
23	0xbe0d1e17	-0.1378101
24	0x3d147f51	0.03625423
25	0xbc7b0fc9	-0.015323588
26	0x3d4c3473	0.049854707
27	0x3d452563	0.048131358
28	0xbd101790	-0.03517872
29	0xbe007a16	-0.12546572
30	0xbe03bf32	-0.12865904
31	0xbe0a0a3a	-0.13480464
32	0xbd020300	-0.031741142
33	0xbc254c0a	-0.01008893
34	0xb9baa695	-0.00035600798
35	0xbd41f659	-0.047354076
36	0xbdae34ee	-0.08506189
37	0xbd49a7aa	-0.049232163
38	0xbdb53742	-0.0884843
39	0xbe2b0542	-0.16701224
40	0xbd3efc97	-0.046627607
41	0x3bdd35db	0.006750805
42	0x3cf516f9	0.02991818
43	0xbd473360	-0.04863298
44	0xbd7f48d1	-0.062325303
45	0xbd061858	-0.03273806
46	0xbddc2c6a	-0.10750659
47	0xbe15c46f	-0.14625715
48	0x3c06b633	0.008222151
49	0xbd5f1c7f	-0.054470535
50	0x3cc6c743	0.024264937
51	0xbd03dec0	-0.032194853
52	0xbce12342	-0.027482633
53	0xbd7c8007	-0.061645534
54	0xbdf30457	-0.11866062
55	0xbe0f5bd9	-0.13999881
56	0x3c6aadc7	0.014323658
57	0x3d92d270	0.07169044
58	0x3d66e949	0.05637482
59	0x3d261723	0.04054941
60	0xbc0ae835	-0.008478214
61	0xbd5183ac	-0.051150963
62	0xbd988f10	-0.07449162
63	0xbd63c182	-0.055604465
64	0x3d99c837	0.07508891
65	0xbc0f2f75	-0.008739342
66	0xbb21a6bb	-0.002466603
67	0x3d9cfab5	0.07665006
68	0x3d5f55a1	0.05452502
69	0x3d826fca	0.06368978
70	0xbd1ef1f1	-0.038804952
71	0xbd578a49	-0.052622113
72	0x3cecff2c	0.02893027
73	0xbc9b9ecd	-0.01899662
74	0x3cae91b9	0.02130972
75	0x3d4f19a0	0.050561547
76	0x3d0f0916	0.034920774
77	0x3cee4291	0.029084476
78	0xbcef1081	-0.029182674
79	0xbdfe9c5e	-0.124321684
80	0xbce7dcab	-0.028303465
81	0xbbcad99d	-0.0061904923
82	0x3d7a7d9c	0.061154947
83	0x3c6b04dd	0.014344421
84	0x3bcbbcd9	0.0062175808
85	0xbb06aaae	-0.002054851
86	0xbde6f300	-0.11276817
87	0xbe1530e6	-0.14569435
88	0x3c18a050	0.009315565
89	0x3d19cd2c	0.037549183
90	0x3ca4d9c1	0.020123364
91	0x3d87852d	0.06617198
92	0x3ccd1104	0.025032528
93	0xbd1a3f34	-0.03765793
94	0xbe050c1b	-0.12992899
95	0xbd9f3991	-0.07774652
96	0x3d16fe38	0.036863536
97	0x3d5d21f1	0.053987447
98	0x3cb5ed20	0.022207797
99	0xbc0b34ac	-0.008496445
100	0xbca26bef	-0.019826857
101	0xbd59d6ea	-0.053183474
102	0xbd90ca0f	-0.070697896
103	0xbe24ab38	-0.1608094
104	0xbd14ae03	-0.036298763
105	0x3d80d9e7	0.062915616
106	0x3d3874be	0.04503321
107	0x3d702b1f	0.058634873
108	0xbd8a112a	-0.06741555
109	0xbd91e625	-0.07123975
110	0xbe0e35ca	-0.13887706
111	0xbde446d1	-0.1114632
112	0x3b8b4922	0.0042506615
113	0x3d1c049e	0.03809034
114	0x3d7fecad	0.06248157
115	0x3c36c8e2	0.011156293
116	0xbcec42f3	-0.028840518
117	0xbdd68bfb	-0.10475918
118	0xbd9ba7b2	-0.07600345
119	0xbd909b39	-0.07060856
120	0xbc2de341	-0.010613264
121	0x3c3060e4	0.010765288
122	0xbb82f641	-0.003996641
123	0x39de028f	0.00042345046
124	0xbb6ab446	-0.0035813018
125	0xbd687985	-0.056756515
126	0xbdc8c08a	-0.09802349
127	0xbd99a36d	-0.07501874
128	0x3cb472fa	0.022027481
129	0x3c804c6c	0.01566144
130	0x3bda818d	0.0066682757
131	0x3ca5e204	0.020249374
132	0x3d99dde8	0.075130284
133	0x3c25dbec	0.010123234
134	0x3d13bf1b	0.036070924
135	0xbda605a2	-0.08106543
136	0x39e14ffd	0.0004297494
137	0xbcd510b8	-0.026008949
138	0x3d212404	0.039340988
139	0x3d84a15f	0.064760916
140	0x3d2f2e00	0.04276848
141	0xbc964873	-0.018345093
142	0xbcf0388c	-0.029323839
143	0xbe092caf	-0.13395952
144	0x3d067633	0.032827567
145	0xbb681dfd	-0.0035418265
146	0x3d20b30b	0.03923325
147	0x3d0e503a	0.03474448
148	0xbc0a6531	-0.0084469775
149	0xbbde5ce3	-0.0067859753
150	0xbd44aa92	-0.04801423
151	0xbe17405f	-0.1477065
152	0x3a30337a	0.0006721538
153	0x3de9b915	0.11412255
154	0x3de13aa8	0.10997516
155	0x3dd16707	0.10224729
156	0x3d845310	0.064611554
157	0x3b7d6277	0.0038663426
158	0xbdb20937	-0.08693164
159	0xbdb42e7a	-0.08797927
160	0x3bbb3dd1	0.005714156
161	0x3d888643	0.066662334
162	0x3d97fc35	0.074211515
163	0x3d198847	0.03748348
164	0x3d1829f5	0.03714939
165	0xbd717e88	-0.05895856
166	0xbcbac4d6	-0.022798937
167	0xbdde8f79	-0.10867209
168	0x3cc17ba3	0.023618525
169	0x3d2f7ba6	0.04284253
170	0x3dc917e3	0.09819009
171	0x3d0d395c	0.03447853
172	0x3cf8bc3b	0.030363193
173	0xbdb6f67f	-0.08933734
174	0xbdac6197	-0.08417051
175	0xbe1e2a83	-0.15445904
176	0x3cc006be	0.023440715
177	0x3c19ea2d	0.009394211
178	0x3c4f6e88	0.01266063
179	0x3d3936ea	0.045218386
180	0xbc6f96fc	-0.0146234
181	0xbde9c219	-0.11413974
182	0xbdd6197d	-0.1045408
183	0xbe059deb	-0.13048522
184	0x3c97f287	0.018548263
185	0x3ccb16ef	0.024791209
186	0x3ba46fbb	0.005018202
187	0xbbaa5d3e	-0.0051991036
188	0xbcf93e8f	-0.030425338
189	0xbdac8591	-0.08423913
190	0xbdb0677b	-0.08613487
191	0xbde44533	-0.11146011
192	0x3d891ff9	0.066955514
193	0xbd4b37aa	-0.049613632
194	0xbd02b9b5	-0.031915385
195	0x3cd1d139	0.02561246
196	0x3d3b0214	0.04565628
197	0x3c654472	0.013993369
198	0x3d694c8f	0.056957778
199	0xbd22f535	-0.03978463
200	0x3c03c942	0.008043589
201	0x3c857321	0.01629025
202	0x3dcc8e01	0.099880226
203	0x3d13f8af	0.036125835
204	0x3d8d3140	0.06894159
205	0x3d028f3f	0.03187489
206	0xbd45ab4d	-0.04825907
207	0xbdc182ee	-0.09448801
208	0x3c8c44ae	0.017122593
209	0x3da1a5f1	0.07892979
210	0x3d8b7432	0.06809272
211	0x3cd7ec55	0.02635781
212	0x3c7c6232	0.015404271
213	0x3d06b095	0.032883245
214	0xbd16e884	-0.036842838
215	0xbdc58e53	-0.09646287
216	0x3d444f7f	0.047927376
217	0x3d4cecae	0.050030403
218	0x3d21a722	0.03946603
219	0x3d9fe78a	0.078078344
220	0x3d878bf7	0.06618493
221	0x3d20a50c	0.0392199
222	0xbd03158c	-0.03200297
223	0xbd45f8d9	-0.048333023
224	0x3d99c223	0.07507732
225	0x3db91b3e	0.09038399
226	0x3d4b7f42	0.04968191
227	0x3d9c932c	0.07645258
228	0x3dca4dc6	0.09878115
229	0xbc57addf	-0.013164013
230	0xbd9ef339	-0.07761235
231	0xbddd0cfb	-0.107934915
232	0xbc8feee2	-0.017569963
233	0x3d011453	0.031513523
234	0x3dd15b5c	0.102225035
235	0x3d498c8e	0.04920631
236	0x3d8f6170	0.070010066
237	0xbcd22d9a	-0.02565651
238	0xbd79d84e	-0.0609973
239	0xbdf04716	-0.117323086
240	0x3d1ff0c7	0.039047983
241	0x3d6bb737	0.057547774
242	0x3bdd5998	0.006755065
243	0x3d564af3	0.05231757
244	0x3bc47ee0	0.00599657
245	0xbda10421	-0.07862116
246	0xbd24cc42	-0.040233858
247	0xbdbd557a	-0.09244819
248	0x3c2258bf	0.009908854
249	0x3c0c1bd5	0.008551558
250	0xbcce30bb	-0.02516972
251	0x3cb46536	0.022020917
252	0xbd792bed	-0.060832907
253	0xbdbb58be	-0.091477856
254	0xbd434ceb	-0.047680777
255	0xbe01c9b3	-0.12674598

cnn.0.bias f4 [32]
0	0xbc7e5885	-0.015524034
1	0x3d13e272	0.036104627
2	0x3cc4a9bd	0.024006719
3	0x3d57b2d3	0.052660774
4	0x3d1d0ace	0.038340382
5	0x3d1ed279	0.03877494
6	0x3d107f56	0.035277687
7	0x3d263a44	0.04058291
8	0x3d7529dd	0.059854377
9	0x3d70abfc	0.058757767
10	0x3d4a0f59	0.049331043
11	0xbd2a713e	-0.041611902
12	0x3b37b25a	0.002802989
13	0x3c5f3368	0.013623096
14	0x3d465374	0.04841943
15	0x3d2d25ac	0.042272255
16	0x3d979a90	0.07402527
17	0x3b5ab0a4	0.0033369446
18	0x3c656391	0.014000789
19	0x3d580ac4	0.052744642
20	0xb8c0f426	-9.2007496e-05
21	0xbd64eb2d	-0.055888344
22	0x3d85eb27	0.065389924
23	0x3d1c8d48	0.038220674
24	0x3bf88dca	0.007585262
25	0x3d9a721e	0.075412974
26	0x3d06f25b	0.032945972
27	0xbcec5d93	-0.028853213
28	0x3d3725c7	0.04471376
29	0x3b7c39c8	0.0038486589
30	0x3d1db28e	0.03850036
31	0x3c541bb1	0.012946055

cnn.2.weight f4 [64, 32, 4, 4]
0	0xbd9da113	-0.07696738
1	0x3d3ddf10	0.046355307
2	0xbbd84884	-0.0066004414
3	0xbdb165c5	-0.08661989
4	0x3d0d0b00	0.03443432
5	0x3d628715	0.055304606
6	0xbe035d83	-0.1282864
7	0xbe35c9a5	-0.17752703
8	0x3ba0c7f5	0.0049066492
9	0x3b9e6f8a	0.004835074
10	0xbe168122	-0.14697698
11	0xbd1e18b0	-0.038597763
12	0xbd9c21fb	-0.07623669
13	0x3c14fdfb	0.009093757
14	0xbd24b920	-0.04021561
15	0x3dbe0df4	0.09280005
16	0xbabf1f20	-0.001458142
17	0x3da076b8	0.07835144
18	0x3c4ae9b6	0.012384823
19	0xbdc71df5	-0.09722511
20	0x3c1eeb53	0.00969966
21	0x3d47c0b5	0.048767764
22	0xbdb6e7a6	-0.08930902
23	0xbd137a28	-0.03600517
24	0xbd4b9e3a	-0.049711443
25	0xbce26125	-0.027634213
26	0xbdae6428	-0.08515197
27	0x3cbc56e9	0.02299066
28	0x3dbe5725	0.09293965
29	0x3db0164e	0.08598004
30	0x3d74e492	0.059788294
31	0x3d90846b	0.07056507
32	0xbc7068f2	-0.014673458
33	0x3dcc3fda	0.09973116
34	0xbd65c613	-0.0560971
35	0xbe2258d2	-0.15854195
36	0x3d4a7ec2	0.049437292
37	0x3d8529f0	0.065021396
38	0xbd1e9d8f	-0.03872448
39	0xbdbe7265	-0.09299163
40	0xbd010b6f	-0.031505045
41	0x3c41da43	0.011831823
42	0xbe16007e	-0.14648625
43	0xbd5034ff	-0.05083179
44	0x3ce1bd19	0.02755599
45	0x3d91f567	0.07126885
46	0x3d2efd21	0.04272187
47	0x3d341d2a	0.043973126
48	0x3b7f9f26	0.0039004772
49	0x3d925c67	0.071465306
50	0xbb49dead	-0.003080289
51	0xbd911565	-0.07084159
52	0xbcae9c76	-0.02131484
53	0x3d30e189	0.043183837
54	0xbb31a4ec	-0.0027106358
55	0xbda335d2	-0.0796925
56	0x3d5dd474	0.05415769
57	0x3c2fc3bf	0.010727822
58	0xbdf2f952	-0.1186396
59	0x3d0dd9e2	0.034631617
60	0xbcfba325	-0.030717442
61	0x3d7e8bbe	0.062144987
62	0x3d1f43cc	0.038883016
63	0xbc1905f3	-0.009339797
64	0x3d8ebedd	0.06969998
65	0x3d17a5a8	0.037023216
66	0xbd2f0cad	-0.042736698
67	0xbd0c4913	-0.034249377
68	0x3d8a8ba2	0.06764914
69	0x3d47c20d	0.048769046
70	0xbd2cfbf8	-0.042232484
71	0xbd16883b	-0.036751013
72	0xbcd7e145	-0.026352534
73	0xbe148f4b	-0.14507787
74	0xbe1657f1	-0.14681984
75	0x3d3b9914	0.045800284
76	0x3d070ef4	0.032973245
77	0x3d1dabac	0.038493797
78	0x3cce7973	0.025204396
79	0x3c8cfa30	0.017209142
80	0x3d8f50d4	0.069978386
81	0x3d077a77	0.033075776
82	0xbd64c7d3	-0.05585463
83	0xbd86fac5	-0.06590799
84	0x3dd7d2fd	0.1053829
85	0x3d0283df	0.031864043
86	0xbdb75923	-0.08952548
87	0xbd031ed8	-0.032011837
88	0xbb48c5d9	-0.0030635505
89	0xbdd80f6a	-0.10549815
90	0xbdb5f685	-0.088849105
91	0x3d43408d	0.047668982
92	0x3d29fb30	0.041499317
93	0xbcf722bf	-0.030167935
94	0x3d3b30e3	0.04570092
95	0xbd6f70a8	-0.058457047
96	0x3d37553e	0.044759028
97	0x3d719c1d	0.05898677
98	0x3d0b2d66	0.033978842
99	0xbad897eb	-0.0016524767
100	0x3ce495a3	0.027903384
101	0x3d0f7f41	0.03503347
102	0xbd180923	-0.03711809
103	0x3cb09267	0.021554185
104	0xbc66334d	-0.014050317
105	0xbd0506db	-0.03247724
106	0xbd7912d9	-0.06080899
107	0x3d041061	0.032242183
108	0x3c908194	0.017639913
109	0xbcfc3806	-0.030788433
110	0xbd89028e	-0.066899404
111	0x3bb7f340	0.0056137145
112	0x3a26673d	0.0006347781
113	0x3d53e3e3	0.051731
114	0xbdbdf21b	-0.092746936
115	0xbd56c2ca	-0.05243186
116	0x3da845ff	0.08216476
117	0xb97754d1	-0.00023587352
118	0xbde9fb55	-0.11424891
119	0x3ccb67f6	0.024829846
120	0x3d03e33b	0.032199126
121	0xbe369332	-0.17829588
122	0xbe27df24	-0.16393715
123	0x3dab2cc2	0.08358146
124	0xbd2b6fc7	-0.041854646
125	0xbcd16696	-0.025561612
126	0x3caef909	0.021358984
127	0xbd37c309	-0.044863734
128	0xbc6a9c15	-0.014319439
129	0x3c952cdb	0.018209865
130	0xbd40eff4	-0.047103837
131	0xbda83e6d	-0.08215032
132	0x3d8f061e	0.06983589
133	0x3cf8ae31	0.030356498
134	0xbdd1f921	-0.10252596
135	0x3c15bf28	0.0091398135
136	0xbd183fad	-0.0371701
137	0xbe157049	-0.14593615
138	0xbdc1e7d3	-0.09468045
139	0x3d662d2b	0.05619542
140	0xbd127327	-0.03575435
141	0xbb651bcc	-0.0034959195
142	0x3d1f42e1	0.03888214
143	0x3d60cf85	0.054885406
144	0x3a861d56	0.0010232131
145	0x3d55213e	0.052033655
146	0x3c3ffe56	0.011718353
147	0xbe141651	-0.14461638
148	0x3d668ad5	0.056284744
149	0x3ce024b5	0.027361253
150	0xbd3abf93	-0.045592856
151	0xbd660540	-0.05615735
152	0xbb78542c	-0.0037891967
153	0xbd9db1d2	-0.07699932
154	0xbe178638	-0.14797294
155	0xbca60ae3	-0.020268863
156	0xbced10d4	-0.028938688
157	0x3da7d42e	0.08194767
158	0xbc5bc9ba	-0.013414795
159	0x3c21e583	0.00988138
160	0x3caa7c17	0.020811124
161	0x3d1b67b7	0.037940707
162	0x3c66f3ce	0.0140962135
163	0xbd58c776	-0.052924596
164	0x3c99dac2	0.01878107
165	0x3c76c801	0.015062333
166	0xbda8cf0a	-0.082426146
167	0xbc1ec151	-0.009689645
168	0x3bd07f77	0.0063628512
169	0xbe2a9bac	-0.16660947
170	0xbe07ba95	-0.13254769
171	0x3cf44260	0.029816806
172	0x3d6756a5	0.056479115
173	0xbcdac9ae	-0.026707496
174	0x3cd7113f	0.02625334
175	0x3be9495a	0.00711934
176	0x3bb5149b	0.005526138
177	0x3d930376	0.071783945
178	0xbb6c3476	-0.0036042011
179	0xbd5485ac	-0.051885292
180	0x3d3868be	0.045021765
181	0x3d979e09	0.0740319
182	0xbd820532	-0.06348647
183	0xbd57cc22	-0.05268491
184	0x3d87a51a	0.066232875
185	0xbd8490cc	-0.0647293
186	0xbd759a14	-0.059961393
187	0x3d85b26d	0.06528173
188	0xbc6a2b5f	-0.014292567
189	0x3e1c4f2b	0.15264575
190	0x3def5380	0.11685848
191	0x3aca5c22	0.0015438835
192	0x3d9087f0	0.07057178
193	0x3dabb12a	0.08383401
194	0xbd17e51b	-0.037083726
195	0xbd60c5d0	-0.05487615
196	0x3b8e0851	0.0043344875
197	0x3d5066de	0.05087935
198	0xbdef482c	-0.116836876
199	0xbc47ed2f	-0.012202545
200	0x3c6dc48d	0.014512193
201	0xbd338449	-0.04382733
202	0xbd216e2a	-0.0394117
203	0x3d351232	0.044206806
204	0xbb56a2a6	-0.0032750755
205	0x3cee7394	0.029107846
206	0xbc6f3a90	-0.014601365
207	0x3d65f20c	0.056139037
208	0x3cea94f6	0.028635483
209	0x3d56ce57	0.052442875
210	0x3ca5f77b	0.02025961
211	0xbe0f8e59	-0.14019145
212	0x3cfaabce	0.030599501
213	0x3d9f20f2	0.07769956
214	0xbdae9fe4	-0.085265905
215	0xbdee7dc7	-0.11645084
216	0x3c618dcd	0.013766718
217	0xbd4553d0	-0.048175633
218	0xbe3ae404	-0.18251044
219	0xbd60673d	-0.054785956
220	0x3cf7ba29	0.030240135
221	0x3dee1e7b	0.116269074
222	0x3b7292ba	0.0037013725
223	0x3de04ed7	0.109525375
224	0xbaae69c9	-0.0013306673
225	0x3d431bf1	0.04763407
226	0xbd278dbb	-0.04090665
227	0xbd22c1d9	-0.03973565
228	0x3d767865	0.06017341
229	0x3c4043da	0.011734927
230	0xbd544f51	-0.051833455
231	0xbce6708e	-0.028129842
232	0xbd5f6da1	-0.05454791
233	0xbb290dcc	-0.0025795577
234	0xbafa8698	-0.0019113598
235	0x3bbf290e	0.0058337515
236	0x3db1cd07	0.08681684
237	0x3e0c2dad	0.13689299
238	0x3df319c1	0.118701465
239	0x3d5f800e	0.05456548
240	0xbcd3232b	-0.025773605
241	0x3dae1e98	0.08501929
242	0x3ca0fe6b	0.019652566
243	0xbe32cb6f	-0.17460416
244	0xbce9ed83	-0.028555637
245	0x3d29025a	0.04126201
246	0xbc90c982	-0.017674211
247	0xbdfc9d74	-0.12334719
248	0x3cbc5c2a	0.022993166
249	0x3c910f5c	0.01770752
250	0xbe0c23a4	-0.13685471
251	0xbd1ce0f0	-0.038300455
252	0x3d98a303	0.07452967
253	0x3de2a76e	0.11067091
254	0xbd54e61b	-0.05197726
255	0x3d9cdf6f	0.07659804

cnn.2.bias f4 [64]
0	0x3b8f1cb4	0.0043674354
1	0xbc235a87	-0.009970314
2	0xbc40ae72	-0.011760341
3	0xbd0b711d	-0.03404342
4	0xbcc40649	-0.023928778
5	0x3c9a0980	0.018803358
6	0xba8fd35f	-0.0010973028
7	0xbca78067	-0.02044697
8	0x3ccfc115	0.025360623
9	0x3cb93539	0.022608386
10	0xbc9a88dd	-0.01886409
11	0x3ccd5a0d	0.025067354
12	0xbc50d0b2	-0.012745069
13	0x3b31cc15	0.00271297
14	0x3d675b7e	0.056483738
15	0xbcb4914a	-0.022041935
16	0x3c185656	0.009297928
17	0x3cc6b55f	0.024256406
18	0xbcdcf6bb	-0.026973119
19	0xbd06bd92	-0.032895632
20	0x3cab6d9f	0.020926295
21	0x3cb37b9c	0.021909527
22	0x3d2ba843	0.041908514
23	0x3d2fbfd0	0.042907536
24	0x3cde3566	0.027125072
25	0x3d7bb831	0.061454955
26	0xbc4d7432	-0.01253991
27	0x3ad52c90	0.0016263891
28	0xbcaff537	-0.021479232
29	0xbbfcf010	-0.0077190474
30	0x3d49e244	0.04928805
31	0x3d129834	0.035789683
32	0xbc189854	-0.009313662
33	0xbc800665	-0.01562805
34	0x3d1a2766	0.03763523
35	0x3d939f19	0.0720808
36	0xbbe2fe26	-0.0069272695
37	0x3bf7e829	0.0075655174
38	0xbca8cc4c	-0.020605229
39	0xbceb71d6	-0.028740805
40	0xbb46a05f	-0.003030799
41	0xbcde54cf	-0.02714005
42	0x3cf5a901	0.029987814
43	0x3c8ee966	0.017445277
44	0xbc644b05	-0.013933902
45	0xbd013d34	-0.03155251
46	0xbd3b3397	-0.045703497
47	0xbbaa7400	-0.0052018166
48	0xbc9e1f5c	-0.019302063
49	0x3d999ecd	0.07500992
50	0x3cf59dc6	0.029982459
51	0x3c5e8732	0.013582038
52	0x3d0c3fe5	0.034240622
53	0x3c148ff5	0.009067525
54	0xbcd654ae	-0.026163425
55	0xbc0147b7	-0.007890633
56	0xbc83276f	-0.016010014
57	0xbcdce4f7	-0.026964648
58	0xbd0ef551	-0.03490192
59	0x3cbd672e	0.023120489
60	0xbcf5d64b	-0.03000941
61	0x3c208669	0.009797671
62	0x3d1b00a0	0.037842393
63	0x3a74302f	0.0009315041

cnn.4.weight f4 [128, 64, 3, 3]
0	0xbd864431	-0.06555975
1	0xbcc4a790	-0.024005681
2	0xbcbb9e7f	-0.022902725
3	0xb966eec9	-0.00022023464
4	0x3cddea5c	0.02708929
5	0x3c685cee	0.014182312
6	0x3cbfa407	0.023393644
7	0xbbca4086	-0.0061722426
8	0xbd969cb6	-0.07354109
9	0xbca88c00	-0.02057457
10	0xbb949450	-0.004534282
11	0xbd16205e	-0.03665196
12	0x3cf01813	0.029308354
13	0xbcd3162a	-0.025767405
14	0x3cf1d01d	0.029518181
15	0x3c686c39	0.014185959
16	0x3ce19559	0.027537035
17	0xbd065a53	-0.032800984
18	0xbd486170	-0.04892105
19	0xbcd2829f	-0.02569705
20	0x3d22f641	0.039785627
21	0x3d151aee	0.036402635
22	0x3bfe9994	0.007769773
23	0x3ca536dd	0.020167762
24	0x3d024c03	0.03181077
25	0x3c82ff02	0.015990738
26	0xbcde8d3e	-0.027166959
27	0x3a06d4f7	0.00051434286
28	0xbc6fe01c	-0.014640834
29	0x3c1cbc6a	0.009566406
30	0x3d03132d	0.03200071
31	0x3b050a85	0.002030046
32	0xbd08f394	-0.03343542
33	0x3d2a970f	0.041647967
34	0x3d0d7a7f	0.03454065
35	0xbcc1afd8	-0.02364342
36	0x3c964d87	0.018347515
37	0xbcfe8b45	-0.031072268
38	0xbb111ffb	-0.0022144306
39	0x3c283bdd	0.010268179
40	0xbc28a1fd	-0.010292527
41	0xbd119de0	-0.035550952
42	0x3d37fe24	0.0449201
43	0x3bc2a8a6	0.0059405146
44	0xbcb3e2df	-0.021958767
45	0xbcc17d65	-0.023619363
46	0xbc820586	-0.015871774
47	0x3c849125	0.016182492
48	0x3d2ebefc	0.042662606
49	0x3b83c95c	0.0040218066
50	0xbcfb3cbf	-0.030668614
51	0x3b482d4d	0.003054458
52	0xbb3c2de6	-0.002871388
53	0xbd546144	-0.051850572
54	0xbc91c1e3	-0.017792648
55	0x3d0f8e03	0.035047542
56	0xbbaf9c68	-0.0053592212
57	0xbcb9ba31	-0.02267179
58	0xbd1d1eb0	-0.038359344
59	0xbb2dd357	-0.0026523673
60	0xbc300157	-0.010742507
61	0xbcb92bae	-0.022603836
62	0xbbbc3db2	-0.0057446593
63	0x3ccadbdf	0.024763046
64	0x3ca0e6ef	0.019641368
65	0xbcd9c9c3	-0.026585465
66	0x3d3a95b0	0.04555291
67	0x3d121ee4	0.03567399
68	0x39ec715d	0.0004509789
69	0x3cad2eb3	0.021140432
70	0xbbef247e	-0.0072980514
71	0x3d6d4b7e	0.057933323
72	0xbd5ff7cd	-0.05467968
73	0xbd19816f	-0.037476953
74	0xbce4a0ac	-0.027908646
75	0xbcbf3980	-0.023342848
76	0xbbb4a58c	-0.005512899
77	0xbceaf002	-0.028678898
78	0xbc86541f	-0.016397534
79	0x3d0e625e	0.03476178
80	0xbc5a9b9a	-0.013342762
81	0x3c81ef69	0.01586123
82	0x3b9d3345	0.0047973716
83	0x3c5acb45	0.013354127
84	0x3d0872f8	0.033312768
85	0xbc0c22ff	-0.008553266
86	0x3914c503	0.00014187772
87	0xbcc5100c	-0.024055503
88	0xbc982c30	-0.018575758
89	0x3bc7a9cc	0.0060932394
90	0x3c157122	0.009121211
91	0xbc8cfa4c	-0.017209195
92	0x3d0d6462	0.03451956
93	0x3cbda100	0.02314806
94	0xbc4eb6e9	-0.012616851
95	0xbc48c189	-0.012253174
96	0x3d53142e	0.051532917
97	0x3cf10c0f	0.029424695
98	0xbd0db148	-0.034592897
99	0xbd24c849	-0.04023007
100	0xbc03bf3e	-0.008041201
101	0xbcb553bc	-0.022134654
102	0xbcfde6b5	-0.030993799
103	0xbbfaf313	-0.0076583712
104	0x3d33f2e1	0.0439328
105	0x3d131e89	0.035917792
106	0x3b41ee8a	0.0029591643
107	0xba984e12	-0.0011619946
108	0xbc0a520e	-0.008442415
109	0x3d0b5c4f	0.03402358
110	0x3d089b9c	0.033351526
111	0xbaafc6d7	-0.0013410699
112	0x3d082723	0.03324045
113	0xbcad5c81	-0.021162273
114	0x3c588952	0.013216333
115	0xbcf5d035	-0.030006507
116	0xbcc9256f	-0.024553983
117	0x3be88a62	0.0070965746
118	0x3c8bdd60	0.017073333
119	0x3c6d8a5d	0.01449832
120	0xbcecaeb0	-0.028891891
121	0xbae34304	-0.0017338698
122	0xbd384ca4	-0.044994965
123	0x3b9eb3ef	0.004843227
124	0x3d5a85ad	0.05335014
125	0x3c811b4d	0.015760088
126	0xbc3da629	-0.01157526
127	0x3d422964	0.047402754
128	0x3bae4f97	0.0053195464
129	0x3b81b835	0.003958727
130	0x3c87dddd	0.016585285
131	0xbc04da9f	-0.008108764
132	0x3ca155aa	0.019694168
133	0x3dd443f8	0.103645265
134	0x3dd33898	0.10313529
135	0xbc5222f8	-0.01282572
136	0x3d4c0e4d	0.049818326
137	0x3d24b7c6	0.040214323
138	0xb9e20712	-0.00043111347
139	0xbc227d67	-0.009917594
140	0xbd098727	-0.033576157
141	0x3d17c716	0.037055098
142	0xbc6a28d5	-0.014291962
143	0x3b46b2a3	0.0030318878
144	0xbd006133	-0.031342696
145	0x3cdf620c	0.027268432
146	0xbc7bf47f	-0.015378117
147	0xbcda6209	-0.026658075
148	0xbc04fb5b	-0.008116568
149	0x3c109d30	0.008826539
150	0xbbc341d3	-0.0059587746
151	0x3ce88f55	0.028388659
152	0xbcfcbd1b	-0.030851891
153	0xbb7b6684	-0.0038360665
154	0xbd022a94	-0.031778887
155	0x3d0abaed	0.033869673
156	0x3a8a7062	0.0010562057
157	0x3ca071c6	0.019585501
158	0xbcc72b1e	-0.024312552
159	0x3a847268	0.0010104897
160	0xbca360b0	-0.019943565
161	0xbd5837f2	-0.05278773
162	0xbe53308f	-0.20623992
163	0xbd04be8e	-0.03240829
164	0x3d00bc5b	0.03142963
165	0x3c16fa3b	0.009214933
166	0x3d0f8ac8	0.03504446
167	0xbd948a30	-0.0725292
168	0x3c7fd56a	0.015614847
169	0xbcd4a0ba	-0.025955547
170	0xbc96da43	-0.018414622
171	0xbd3f4f6f	-0.046706613
172	0x3caa3717	0.020778222
173	0x3cc45c8a	0.023969907
174	0xbb621ba3	-0.0034501336
175	0xbd32295d	-0.04349648
176	0x3d5268a6	0.05136933
177	0xbb6d905d	-0.0036249377
178	0x3c8a7d01	0.01690531
179	0xbb33cad8	-0.0027434137
180	0x3c98c553	0.018648779
181	0x3cdb209c	0.026748948
182	0x3cb448c6	0.022007357
183	0x3d04d922	0.032433636
184	0x3d1da578	0.03848788
185	0x3c9ce5f3	0.019152617
186	0xbd2d8e1c	-0.042371854
187	0x3c6b6fa2	0.014369877
188	0x3d4c9b80	0.049952984
189	0x3c335d02	0.010947468
190	0xbd2e56ed	-0.042563368
191	0xbd4628ba	-0.048378684
192	0x3d0195a2	0.03163684
193	0xbd06f6ce	-0.032950215
194	0xbd66ed5f	-0.05637872
195	0xbaee052c	-0.00181595
196	0xbc88c346	-0.016694676
197	0xbcbc6c8c	-0.023000978
198	0xbc772d1d	-0.015086439
199	0x3b05f83e	0.0020442153
200	0x3cfa5c33	0.030561542
201	0x3d007563	0.03136195
202	0x3cb554ac	0.022135101
203	0x3d37d171	0.044877473
204	0x3c03b118	0.008037828
205	0xbd2c3709	-0.042044673
206	0x3c60896f	0.013704642
207	0xba9beb71	-0.0011895729
208	0xbb213736	-0.0024599559
209	0xb9040323	-0.0001258967
210	0xbba7ab6f	-0.005116872
211	0xbbdf1e7d	-0.0068090544
212	0x3bce57d8	0.006297093
213	0xbd084c01	-0.033275608
214	0x3c841f22	0.016128127
215	0xbd1e8efd	-0.038710583
216	0x3c8032f2	0.015649293
217	0xbd05230c	-0.032504126
218	0xbcd87f32	-0.026427839
219	0xbc200122	-0.009765895
220	0xbca4b78b	-0.020107051
221	0x3cc03d4d	0.02346673
222	0xbcb9ce0f	-0.022681264
223	0xbc343704	-0.010999445
224	0x3a964270	0.0011463892
225	0xbd3c76d8	-0.046011776
226	0xbc2ddcbe	-0.010611711
227	0x3d0234bc	0.031788573
228	0x3cdd121a	0.02698617
229	0xbc9ea6d5	-0.019366661
230	0x3c8d69ae	0.017262306
231	0x3bae2368	0.0053142793
232	0x3c73177c	0.014837142
233	0x3c789f1d	0.015174654
234	0xbd130f58	-0.035903305
235	0xbcd7e508	-0.026354328
236	0x3cef337e	0.029199358
237	0x3cbfbefd	0.0234065
238	0xbcb103f6	-0.021608334
239	0x3cac06ba	0.020999301
240	0x3d2b3132	0.041794963
241	0xbd4996dd	-0.04921614
242	0x3cb66e26	0.02226932
243	0x3c0eea92	0.008722918
244	0x3cc472e6	0.02398057
245	0xbc7c65cc	-0.01540513
246	0x3ccb74c3	0.02483595
247	0x3c2ffc03	0.010741237
248	0xbcf79b81	-0.030225517
249	0xbc6529d7	-0.013987026
250	0x3c9c5501	0.019083502
251	0xbbdac8d8	-0.0066767745
252	0x3c69b240	0.0142636895
253	0x3ca5143e	0.020151254
254	0xbcca308c	-0.024681352
255	0xbca21231	-0.019784065

cnn.4.bias f4 [128]
0	0xbd2f5504	-0.042805687
1	0xbc3df2bc	-0.011593517
2	0x3ca8771f	0.020564614
3	0x3ba902c9	0.0051578027
4	0x3d15f865	0.03661384
5	0xbcc1f788	-0.023677602
6	0xbce64268	-0.028107837
7	0x3c4236d9	0.011853897
8	0x3ce4463f	0.027865527
9	0x3ce7d010	0.028297454
10	0x3ad5107a	0.0016255521
11	0xbd630206	-0.05542185
12	0xbd0680c3	-0.03283764
13	0x3cb419e7	0.021985007
14	0x3cff7e20	0.03118807
15	0x3c80ca1a	0.01572137
16	0xbc23e09e	-0.010002283
17	0x3c4f7372	0.012661802
18	0xbcbffc0c	-0.023435615
19	0x3d0c2335	0.034213264
20	0x3d2d7f13	0.042357516
21	0x3d811f0d	0.063047506
22	0xbcba5827	-0.022747112
23	0xbcdbc95b	-0.026829412
24	0x3a293187	0.00064542185
25	0xbd754597	-0.05988082
26	0x3b2ad33d	0.002606585
27	0x3c0f1042	0.0087319035
28	0xbd41b04a	-0.047287263
29	0x3bee2a55	0.00726823
30	0x3d02ea44	0.031961694
31	0xbc8ff5e8	-0.017573312
32	0xbd13e098	-0.03610286
33	0xbcdc2365	-0.026872346
34	0xbc047b86	-0.008086091
35	0x3c03e893	0.0080510555
36	0x3bfd21af	0.0077249627
37	0xbd2ca1e1	-0.042146567
38	0xbcfd0278	-0.030884966
39	0x3c3f9349	0.01169283
40	0x3d4a4153	0.049378704
41	0x3d3f4d23	0.046704423
42	0xbca2bec5	-0.019866357
43	0x3ba99c05	0.0051760697
44	0x3d2dc247	0.042421605
45	0xbcbb142a	-0.022836763
46	0xbbad7046	-0.005292925
47	0xbcdd447e	-0.027010199
48	0x3cd63341	0.026147487
49	0xbc87d467	-0.016580774
50	0x3cc5d749	0.024150508
51	0x3d1d44af	0.03839558
52	0xbc6392f8	-0.013890021
53	0xbd171075	-0.03688093
54	0x3d0f944d	0.03505354
55	0x3bdd8e13	0.0067613213
56	0x3cdc70d0	0.026909262
57	0x3baf63ae	0.005352459
58	0xbc52852e	-0.012849135
59	0x3c8bf74b	0.017085692
60	0x3c6590c4	0.014011566
61	0x3c565bd9	0.013083422
62	0x3bac6391	0.0052608927
63	0x3c231ad1	0.009955124
64	0x3d13f255	0.036119778
65	0xbc08abd1	-0.0083417455
66	0x3d3959d4	0.045251682
67	0xbc29c0ec	-0.010360938
68	0xbcacfe24	-0.021117277
69	0x3aab1ac9	0.0013054247
70	0x3cc036f4	0.023463704
71	0x3d201c9f	0.039089795
72	0x3ccb7f75	0.02484105
73	0x3c95813a	0.018250097
74	0x3d24e312	0.040255614
75	0x3cdb6988	0.02678372
76	0xbd3adf3b	-0.045623045
77	0x3d0c6723	0.034278046
78	0x3cd466ad	0.025927866
79	0x3c59d7d8	0.01329609
80	0x3d19699f	0.037454244
81	0xbd2f54dd	-0.04280554
82	0x3d1503a5	0.03638043
83	0xbbce8a1e	-0.006303086
84	0xbc0e52af	-0.0086867055
85	0x3c07a387	0.008278734
86	0xbd0ed8bc	-0.034874663
87	0x3bb5d5d4	0.005549172
88	0xbc83060e	-0.015994098
89	0xbcb4ced0	-0.022071272
90	0x3d1dd0d7	0.038529243
91	0x3c417272	0.011807071
92	0x3d17a494	0.03702219
93	0xbcb5cf54	-0.022193588
94	0xbb6ab2f7	-0.0035812238
95	0x3ca9bc1a	0.020719577
96	0xbbfc8773	-0.0077065765
97	0xbcdcd7f3	-0.026958441
98	0xbc449218	-0.011997722
99	0xbc1e3dc8	-0.0096582845
100	0x3c766bb8	0.015040331
101	0xbccf1159	-0.025276827
102	0x3d22ffa2	0.03979457
103	0x3b666e7d	0.003516107
104	0xbc798abc	-0.015230831
105	0xbc57495d	-0.01314005
106	0xbcae9f66	-0.021316241
107	0x3d5307e2	0.05152119
108	0xbd0066dc	-0.031348094
109	0xbd2962ff	-0.041354176
110	0x3ac2ae94	0.0014853054
111	0x3bf1ad6b	0.0073754094
112	0xbb8989af	-0.0041973214
113	0xbbb8a0de	-0.0056344112
114	0xbcd84856	-0.02640168
115	0xbc693e14	-0.014235992
116	0x3d37d7ef	0.044883665
117	0x3c8f6533	0.01750431
118	0x3cb36a0e	0.021901157
119	0x3d008032	0.031372257
120	0xbc950f31	-0.01819572
121	0xbced7dc1	-0.028990628
122	0xbc693c5f	-0.014235585
123	0x3d271158	0.040788025
124	0xbc15e4ad	-0.009148759
125	0xbc246adc	-0.010035243
126	0x3c91d9e6	0.017804097
127	0xbcd342c6	-0.025788676

linear.0.weight f4 [64, 512]
0	0x3c876bcb	0.016530892
1	0x3d180b05	0.037119884
2	0xbca4e234	-0.020127393
3	0x3c959156	0.018257778
4	0x3d06cdbc	0.032911047
5	0xbd0ab82b	-0.033867043
6	0xbc90b6a6	-0.017665219
7	0xbc0003c3	-0.007813397
8	0x3c9408fd	0.018070692
9	0xbd9c7634	-0.07639733
10	0x3a3367e8	0.00068437913
11	0x3cdfbd89	0.027312057
12	0x3b1f53c4	0.0024311403
13	0x3cc660f2	0.024216149
14	0xbc8d1e48	-0.017226353
15	0xbd0adbcf	-0.033901032
16	0x3cdde041	0.027084472
17	0x3d413edc	0.047179088
18	0xbe391a69	-0.18076481
19	0x3dab77de	0.08372472
20	0xbc09de86	-0.00841487
21	0x3d08c32d	0.03338926
22	0xbde02e95	-0.10946385
23	0xbc868a08	-0.01642324
24	0x3e002e4a	0.12517658
25	0xbd25411a	-0.04034529
26	0x3c51e04c	0.012809824
27	0xbd9e176e	-0.077193126
28	0x3c114901	0.008867503
29	0x3d232b02	0.039835937
30	0xbdec6947	-0.115435176
31	0x3d679205	0.05653574
32	0x3d1468f4	0.036232904
33	0x3d1bd733	0.038047027
34	0xbb8cbf20	-0.004295245
35	0xbcc81388	-0.024423376
36	0xbd290e80	-0.041273594
37	0x3b75a876	0.0037484444
38	0x3d010ca6	0.031506203
39	0x3c4717a4	0.012151632
40	0xbcd284fd	-0.02569818
41	0x3c937b58	0.01800315
42	0xbc94e268	-0.018174365
43	0xbc6399b9	-0.013891631
44	0x3ca1d67c	0.019755594
45	0x3cd47d2b	0.025938591
46	0xbc359c5d	-0.011084643
47	0xbcf01b4b	-0.02930989
48	0xba7c05a0	-0.00096138753
49	0x3ca8ee6b	0.020621499
50	0x3d02369c	0.03179036
51	0xbd466e83	-0.048445236
52	0x3c49eeee	0.012325032
53	0x3c189eaa	0.009315172
54	0x3d34085f	0.043953296
55	0xbd2d169a	-0.042257883
56	0x3cd08c20	0.025457442
57	0x3c24d0f1	0.010059581
58	0x3ce99531	0.028513523
59	0x3c8fd87c	0.017559282
60	0xbb2b1d6d	-0.0026110068
61	0xbc202917	-0.009775422
62	0x3d77bd1d	0.060483087
63	0xbd4e8d19	-0.05042753
64	0xbd5746c0	-0.052557707
65	0x3c207f9e	0.009796051
66	0x3d103100	0.03520298
67	0x3ba22d81	0.004949272
68	0xbc62d732	-0.013845252
69	0x3d2ccb77	0.042186227
70	0x3d95951e	0.073038325
71	0xbd0d1ff3	-0.034454297
72	0xbd1b7ff9	-0.03796384
73	0x3bcd9db0	0.0062749013
74	0xbb73223f	-0.003709927
75	0x3a95ab18	0.0011418788
76	0xbca41b28	-0.02003248
77	0xbc6da7d5	-0.014505346
78	0x3d00ad8f	0.03141552
79	0xbbec3fdc	-0.007209761
80	0xbccfbde7	-0.025359107
81	0xbd12d658	-0.035848945
82	0x3d7a99c1	0.061181787
83	0x3baeed6f	0.005338363
84	0xbd24e8b0	-0.04026097
85	0xbd07e6d4	-0.03317912
86	0x3d2cd679	0.042196725
87	0xbc648a07	-0.013948924
88	0x3d40740a	0.046985663
89	0xbd2cfe54	-0.042234734
90	0x3ca8ad31	0.020590397
91	0xbcb95e99	-0.022628115
92	0x3d698df3	0.05702014
93	0xbcfd325c	-0.030907802
94	0x3d076724	0.033057347
95	0xbd298c3c	-0.041393504
96	0x3d1f54c3	0.038899194
97	0xbd6b4a4a	-0.057443894
98	0x3ce36398	0.027757451
99	0xbb55bfba	-0.0032615499
100	0x3cef7952	0.029232655
101	0x3d4c2ba9	0.049846325
102	0xbc2506a1	-0.010072381
103	0xbdc51bea	-0.09624465
104	0x3cc9dad0	0.02464047
105	0xbc17da16	-0.009268304
106	0x3d95f055	0.0732123
107	0xbcbc61bf	-0.022995828
108	0xbb10ab28	-0.0022074673
109	0xbc8c78a5	-0.017147372
110	0xbae61b02	-0.0017555656
111	0xbd812961	-0.063067205
112	0xbc44c9ee	-0.012011034
113	0x3cc57917	0.024105592
114	0xbe173bd3	-0.14768915
115	0x3d3dbce7	0.04632273
116	0x3ca91e05	0.020644197
117	0x3bbab2fb	0.0056976057
118	0xbd654f2a	-0.0559837
119	0x3d2f3af1	0.04278082
120	0x3ca077a5	0.019588301
121	0x3d25c797	0.040473547
122	0x3d2a8f7f	0.041640755
123	0xbddfe929	-0.10933144
124	0x3cde096f	0.027104108
125	0xbcbfe110	-0.023422748
126	0x3d6b1e1e	0.05740177
127	0xbcafa810	-0.021442443
128	0xbd349e74	-0.044096425
129	0x3d4fe640	0.050756693
130	0x3d238b64	0.039927855
131	0xbdae8c5d	-0.08522866
132	0x3adfa916	0.0017063941
133	0x3cfdf7df	0.031001983
134	0x3c1f26b2	0.0097138155
135	0xbc3c3b7e	-0.011488793
136	0xbd23b3bd	-0.039966334
137	0xbd3f5563	-0.04671229
138	0x3cae5244	0.021279462
139	0x3cb737db	0.022365501
140	0xbbfa27a1	-0.0076341187
141	0x3c667701	0.014066459
142	0x3c86f514	0.016474284
143	0x3c91d03e	0.017799493
144	0x3cc2d3ed	0.023782695
145	0xbd03bb2b	-0.03216092
146	0xbd508306	-0.050906204
147	0x3d02c2fc	0.031924233
148	0x3b373d23	0.0027960024
149	0xbc8ba4e1	-0.017046394
150	0xbcc16b65	-0.02361078
151	0xbc846e68	-0.016165927
152	0x3ccf02a0	0.025269806
153	0x3d9f14de	0.07767652
154	0xba823405	-0.0009933716
155	0xbd91aee2	-0.071134344
156	0xbd5c85f9	-0.053838704
157	0x3d0d3680	0.034475803
158	0x3d9889c7	0.07448154
159	0xbd13470c	-0.035956427
160	0x3d1d5f27	0.038420822
161	0xbd02f68f	-0.031973418
162	0x3ce8e88f	0.028431205
163	0xbb92220f	-0.0044596265
164	0x3d7e2429	0.062046204
165	0xbc09bdec	-0.008407097
166	0xbd1a1909	-0.03762153
167	0xbd65904e	-0.056045823
168	0x3d204d68	0.03913632
169	0x3d2a9c3b	0.0416529
170	0x3c315b06	0.010824924
171	0x3d1c2366	0.038119696
172	0xbd6c4d82	-0.057691105
173	0x3d1d4bca	0.038402356
174	0x3c98f146	0.018669736
175	0xbd48081f	-0.04883587
176	0xbd883826	-0.066513345
177	0x3c400f97	0.011722467
178	0xbd3654c2	-0.044514425
179	0x3cdb3b4c	0.026761673
180	0x3db5005f	0.088379614
181	0x3d651c70	0.055935323
182	0xbd537069	-0.051620875
183	0xbaca8afd	-0.0015452799
184	0x3d5ff23b	0.05467437
185	0x3d983cab	0.074334465
186	0xbc713248	-0.014721461
187	0xbde7d112	-0.11319174
188	0x3c8e357d	0.01735949
189	0x3c4391ee	0.011936648
190	0xbc8ebb74	-0.017423369
191	0xbbe05462	-0.0068459967
192	0x3d66c136	0.056336604
193	0xbd209108	-0.039200813
194	0x3d09c989	0.033639465
195	0xbd49656e	-0.049168997
196	0x3c57c760	0.013170093
197	0x3c86d2c7	0.016457928
198	0x3c73f50f	0.0148899695
199	0x3c838259	0.016053366
200	0xbc838fd1	-0.016059788
201	0xbd75b7cc	-0.059989735
202	0x3cf28201	0.029603006
203	0x3c259f4b	0.010108779
204	0xbab8714f	-0.0014071855
205	0xbc5a52a9	-0.013325372
206	0xbc5d40bb	-0.0135042025
207	0xbd18f50e	-0.037343077
208	0x3ca1c69b	0.019748023
209	0xbacffdcf	-0.0015868488
210	0xbd8188f8	-0.06324953
211	0xbe63d572	-0.22249392
212	0xbd039042	-0.032119997
213	0xbb2ed508	-0.002667727
214	0x3ce1e5e3	0.027575439
215	0x3c98f93d	0.018673534
216	0x3cd01e6c	0.025405131
217	0x397ff44d	0.00024409704
218	0xbb2faf36	-0.0026807315
219	0x3c4b8231	0.012421177
220	0xbbe4376b	-0.006964614
221	0x3e00c25e	0.12574145
222	0xbd231fd2	-0.039825268
223	0xbc0d7e79	-0.00863611
224	0x3cf4d43d	0.02988636
225	0xbd0d5720	-0.034506917
226	0xbc982130	-0.018570513
227	0xbd0461a0	-0.032319665
228	0x3c1f8692	0.009736674
229	0x3c5eff89	0.013610729
230	0x3d6dd850	0.05806762
231	0xbda4c8b1	-0.08046091
232	0xbca4c69c	-0.020114236
233	0x3c9d45fb	0.019198408
234	0xbd58062a	-0.052740254
235	0xbd3520c1	-0.04422069
236	0x3d29b019	0.041427705
237	0xbcf4e80f	-0.02989581
238	0x3c847883	0.016170746
239	0xbd131336	-0.035906993
240	0xbbe22bd5	-0.006902198
241	0x3d4297d4	0.047508076
242	0x3c33f33e	0.010983286
243	0xbc80a54d	-0.015703822
244	0xbd5f502b	-0.054519814
245	0xbce15a0f	-0.027508764
246	0x3c9f9971	0.019482346
247	0xbbe0094f	-0.006837047
248	0xbc80b76d	-0.015712464
249	0x3d1156af	0.03548306
250	0xbc272737	-0.010202221
251	0xbd34f1bf	-0.04417586
252	0xbc3727f9	-0.011178964
253	0x3c3dc04f	0.0115814945
254	0xbc55d6da	-0.013051713
255	0xbcdf4b82	-0.027257685

linear.0.bias f4 [64]
0	0xbd1ac50d	-0.03778558
1	0xbabad7b0	-0.0014254954
2	0x3c921458	0.017831966
3	0xbcd610c0	-0.026131034
4	0x3c58e2d0	0.01323767
5	0xbc204d6d	-0.009784085
6	0x3cf419d3	0.02979747
7	0xbc500490	-0.0126964
8	0xbd0fc589	-0.035100494
9	0x3d07a88a	0.033119716
10	0xbb52b7da	-0.003215304
11	0xbd2f885a	-0.042854644
12	0xbd2c534f	-0.042071637
13	0x3cea2dea	0.028586347
14	0xbd36408b	-0.044495147
15	0x3d2919ab	0.041284245
16	0xbd131bcb	-0.035915177
17	0xbd14d0ab	-0.036331814
18	0xbd3d33b4	-0.046191886
19	0xbc830ce2	-0.015997354
20	0x3c4a9d4d	0.012366605
21	0xbc7d45f0	-0.015458569
22	0x3b02b689	0.0019945225
23	0x3d1af760	0.03783357
24	0x3b38e5f2	0.002821323
25	0x3b93db63	0.004512237
26	0xbc85471c	-0.01626926
27	0xbaf2ebeb	-0.0018533444
28	0xbc145a8e	-0.009054793
29	0xbccffb75	-0.025388459
30	0x3d3238f2	0.04351134
31	0xbc8c0eb7	-0.01709686
32	0x3c123874	0.008924592
33	0xbce49523	-0.027903145
34	0x3d0dc8ff	0.034615513
35	0xbbca009e	-0.0061646244
36	0x3cb76628	0.02238758
37	0xbd23e587	-0.040013816
38	0xbcf5a02f	-0.029983608
39	0x3c22f090	0.00994505
40	0x3bcf811a	0.006332529
41	0x3c83a58f	0.016070155
42	0xbcd39f46	-0.025832783
43	0xbc2beaf7	-0.010493032
44	0xbd2706f5	-0.04077812
45	0xbca54e01	-0.020178797
46	0x3d1220c4	0.03567578
47	0x3d04cde5	0.03242292
48	0x3cc1c0be	0.023651477
49	0x3c0bdf33	0.008537102
50	0x3cc6d170	0.02426979
51	0x3c6478d6	0.013944825
52	0x3cc15310	0.023599178
53	0xb91ad656	-0.00014766431
54	0xbd0b8e69	-0.03407136
55	0xbcd0f1eb	-0.02550598
56	0x3c45caae	0.012072248
57	0x3c4f4fe9	0.012653329
58	0x3c68b7c6	0.014203971
59	0x3cd7b542	0.026331548
60	0x3c3f010a	0.011657963
61	0xbcb14dcb	-0.02164354
62	0x3cd98d8b	0.02655675
63	0x3c10feb2	0.008849787

linear.2.weight f4 [64, 64]
0	0x3e07e850	0.13272214
1	0xbdbcc93a	-0.092180684
2	0x3d7ebee7	0.062193777
3	0x3d9867b0	0.07441652
4	0x3de8c748	0.11366135
5	0x3c7bea03	0.015375617
6	0x3b448a83	0.0029989786
7	0xbc0e61e0	-0.008690327
8	0x3d5305a5	0.051519055
9	0x3db84689	0.089978285
10	0x3c04580b	0.008077632
11	0xbd90a4ed	-0.07062707
12	0xbde5f162	-0.11227681
13	0x3da9758e	0.08274375
14	0xbcda8e5b	-0.026679209
15	0xbd4eb2e1	-0.05046356
16	0xbc9327d0	-0.01796332
17	0x3d729920	0.059228063
18	0xbd131a1e	-0.03591358
19	0xbd4a072b	-0.049323242
20	0x3c824e0d	0.015906358
21	0x3df7bcd5	0.12096564
22	0xbcc14d38	-0.023596391
23	0xbd94bea0	-0.07262921
24	0x3d751462	0.05983389
25	0xbdef722e	-0.116917
26	0xbd730ec7	-0.059340265
27	0x3d8b8e32	0.06814231
28	0xbd769778	-0.060203046
29	0xbd9940e5	-0.07483081
30	0xbdaf0445	-0.08545736
31	0x3d5ef938	0.054436892
32	0x3de29b46	0.11064772
33	0xbdebb8eb	-0.1150988
34	0x3dfd259e	0.123606905
35	0x3d51d814	0.05123146
36	0xbdfbdd37	-0.12298053
37	0x3cc1a0f5	0.02363632
38	0x3db2dae5	0.08733157
39	0x3db178ff	0.08665656
40	0x3c714ac3	0.014727297
41	0x3d927d28	0.07152778
42	0xbda9d2a9	-0.08292133
43	0x3dcd7bec	0.10033402
44	0xbdc33ef5	-0.095334925
45	0x3dec1498	0.115273654
46	0x3df9e24d	0.122013666
47	0x3e20bcb8	0.1569699
48	0xbbe37490	-0.0069413856
49	0xbe16916e	-0.14703915
50	0xbbefb84e	-0.007315672
51	0x3dceb24b	0.100926004
52	0xbdc2b50a	-0.09507187
53	0xbd95bdbb	-0.07311579
54	0xbc1286a3	-0.008943233
55	0xbd1b8e75	-0.037977654
56	0x3cef2f1c	0.029197268
57	0xbd17718e	-0.03697353
58	0xbd421f7f	-0.04739332
59	0x3e1146ee	0.14187214
60	0xbd8338a1	-0.064072855
61	0x3d28d0a5	0.041214604
62	0xba573b2e	-0.00082104176
63	0xbd72b6e7	-0.05925646
64	0xbd3c9234	-0.046037868
65	0xbdc5dc34	-0.09661141
66	0x3c19d990	0.00939025
67	0x3ce493c8	0.027902499
68	0x3d297c78	0.04137847
69	0xbdc7656e	-0.09736143
70	0xbc479350	-0.012181118
71	0xbd6ccd10	-0.05781275
72	0xbd329dc0	-0.043607473
73	0xbda93814	-0.08262649
74	0xbdeda798	-0.116042316
75	0x3d86975a	0.06571837
76	0xbdb6ebf2	-0.08931722
77	0xbcac41b0	-0.021027416
78	0x3c06f470	0.008236989
79	0x3d22d274	0.039751485
80	0x3d4ac7d4	0.049506977
81	0xbde43b5c	-0.111441344
82	0x3d902322	0.07037951
83	0x3ca919c0	0.020642161
84	0x3d8dbc0e	0.06920634
85	0xbbbac620	-0.005699888
86	0x3d921032	0.07131995
87	0x3db44128	0.0880149
88	0xbcc73e88	-0.02432181
89	0x3d9e76d2	0.07737507
90	0x3d61a8c8	0.055092603
91	0x3d3196f4	0.04335685
92	0xbc8d85d0	-0.01727572
93	0x3dd07054	0.10177675
94	0xbdf382fe	-0.11890219
95	0xbdbc64d8	-0.09198922
96	0xbde2db86	-0.11077027
97	0x3c210030	0.009826705
98	0x3d9f9e68	0.077938855
99	0x3c1e7990	0.009672537
100	0x3d89e5a8	0.067332566
101	0x3de5fe14	0.11230102
102	0xbdf1b7a0	-0.11802602
103	0xbdaa200c	-0.08306894
104	0x3d52d3e8	0.05147162
105	0x3de16096	0.110047504
106	0xbb29f5c0	-0.0025933832
107	0x3d59852c	0.05310552
108	0xbd4c5194	-0.049882486
109	0xbbf80040	-0.007568389
110	0xbdb096b2	-0.08622493
111	0x3c7b7ae0	0.01534912
112	0x3d1594c4	0.036518827
113	0xbd69a550	-0.05704242
114	0xbc41e730	-0.011834905
115	0xbdfe7c30	-0.12426031
116	0x3dc992f6	0.09842484
117	0x3c9a6298	0.018845841
118	0x3dcdb638	0.10044521
119	0xbbbc5b20	-0.0057481676
120	0x3dc31092	0.09524645
121	0x3dacd0e4	0.0843828
122	0x3d9c5e68	0.07635194
123	0xbdead7cc	-0.11466941
124	0xbdafba40	-0.08580446
125	0xbd78192c	-0.06057088
126	0xb9636400	-0.0002168566
127	0xbdf71c3a	-0.12065931
128	0xbd063773	-0.032767724
129	0xbdff593a	-0.124681905
130	0x3d91301d	0.07089255
131	0x3d9588d4	0.073014885
132	0xbcf47697	-0.029841704
133	0x3dc8ef39	0.09811253
134	0xbc9326ce	-0.01796284
135	0xbcf4be38	-0.02987586
136	0x3ded5181	0.11587811
137	0xbd3e03c6	-0.046390317
138	0x3d947e55	0.072506584
139	0xbd67baec	-0.056574747
140	0x3dea5a67	0.11443024
141	0xbd848de0	-0.06472373
142	0xbcb28cc8	-0.021795645
143	0xbdd5c302	-0.104375854
144	0xbb56bf4e	-0.0032767835
145	0x3d34bf7c	0.044127926
146	0xbda22576	-0.07917301
147	0x3d21c40d	0.03949361
148	0xbd82165e	-0.063519225
149	0xbd410f04	-0.04713346
150	0xbb48bec0	-0.0030631274
151	0x3b297240	0.0025855452
152	0x3c8d7b07	0.017270578
153	0xbda29a34	-0.07939568
154	0x3de52d9a	0.111903384
155	0x3ced3f00	0.028960705
156	0x3d85685b	0.06514045
157	0x3dc99ca0	0.09844327
158	0xbd9bd960	-0.0760982
159	0x3af5756d	0.0018727012
160	0xbd5d1ba1	-0.053981427
161	0xbdadee94	-0.08492771
162	0x3dd1f1c6	0.10251193
163	0x3de1506c	0.110016674
164	0x3d610ae3	0.054942023
165	0x3d6bcd4c	0.057568833
166	0xbe04f0b3	-0.12982444
167	0xbd087864	-0.03331794
168	0xbce708d0	-0.028202444
169	0xbd7855df	-0.060628768
170	0xbb504a00	-0.0031782389
171	0xbd01739c	-0.031604394
172	0x3dffd1c4	0.124911815
173	0x3cf53cd8	0.02993624
174	0xbc2422f0	-0.010018095
175	0xbdf089ee	-0.11745058
176	0xbe16375b	-0.14669554
177	0xbd15afac	-0.036544487
178	0xbd9bf7ce	-0.07615624
179	0xbde62e41	-0.11239291
180	0xba96e400	-0.0011512041
181	0xbddd7b5e	-0.10814546
182	0xbd8c823e	-0.06860779
183	0x3d84de27	0.06487685
184	0x3d9e13d2	0.07718624
185	0x3d04a923	0.032387864
186	0xbaa60e0f	-0.0012668985
187	0xbcab9b8a	-0.02094819
188	0x3c86565c	0.016398601
189	0xbde4474a	-0.1114641
190	0x3dad0751	0.08448661
191	0xbe037e16	-0.12841067
192	0xbd2bbe27	-0.04192939
193	0xbd93262d	-0.07185016
194	0xbaf3743b	-0.0018574068
195	0xbbd62d40	-0.006536156
196	0xbdc529b5	-0.096270956
197	0x3ce5bdbe	0.028044578
198	0x3db5c65b	0.08875724
199	0x3d980fe8	0.07424909
200	0xbdd5c96c	-0.10438809
201	0xbc1ef04a	-0.009700844
202	0x3cc3d276	0.023904067
203	0x3dc6c37c	0.097052544
204	0x3e08ef41	0.13372518
205	0x3da55687	0.080731444
206	0x3dbe11cc	0.09280738
207	0xbd7b322c	-0.061327145
208	0x3bcdacde	0.006276711
209	0xbd9a5a4b	-0.07536753
210	0xbc816190	-0.015793592
211	0x3dbfd900	0.09367561
212	0xbda555d9	-0.08073015
213	0xbd95832d	-0.073004104
214	0xbdfa2c2e	-0.12215458
215	0xbd8abe1f	-0.06774544
216	0xbda7ec14	-0.08199325
217	0x3ca2bba1	0.019864859
218	0x3df26bb4	0.11836949
219	0x3db2be76	0.08727734
220	0x3ddee4bc	0.10883471
221	0x3c702640	0.014657557
222	0xbd52aa8f	-0.05143219
223	0x3e0807fa	0.13284293
224	0xbdd801de	-0.10547231
225	0x3d9e6ff8	0.077362
226	0xbd99d821	-0.075119264
227	0xbddc3c76	-0.107537195
228	0x3dfe70a5	0.12423829
229	0xbc463455	-0.012097438
230	0x3dc8be6a	0.098019436
231	0xbc7514d4	-0.014958579
232	0x3ddce5fe	0.10786055
233	0xbd786140	-0.06063962
234	0xbdc1d72a	-0.094648674
235	0x3dfbdbf0	0.12297809
236	0x3dab78e1	0.08372665
237	0x3d261b28	0.040553242
238	0x3d3283e7	0.043582823
239	0xbde8a3b0	-0.11359346
240	0xbdc9faae	-0.098622665
241	0x3d2ed0d4	0.042679623
242	0x3da684bd	0.081307866
243	0x3dba5d0a	0.09099777
244	0xbe00ab67	-0.12565385
245	0x3d9b82b3	0.07593288
246	0xbdaacfe2	-0.08340432
247	0x3dc7c0ca	0.097535685
248	0x3d037c39	0.03210089
249	0x3c7cad45	0.01542217
250	0x3d8e8a96	0.06960027
251	0xbe079da9	-0.13243736
252	0xbda50766	-0.08058052
253	0x3d5a73cd	0.053333092
254	0xbdbfceee	-0.093656406
255	0xbb88c7a0	-0.004174188

linear.2.bias f4 [64]
0	0x3dd16b5e	0.10225557
1	0xbd94a89e	-0.07258724
2	0xbd65d9f7	-0.05611607
3	0x3dead8af	0.1146711
4	0xbdcb10a9	-0.09915287
5	0x3dada3d9	0.08478517
6	0x3d833d90	0.064082265
7	0x3ddaa29f	0.10675549
8	0xbdab8a60	-0.08376002
9	0x3cd14b7a	0.025548685
10	0x3dc06c7a	0.0939569
11	0x3d1f712c	0.03892629
12	0x3dd06cc0	0.101769924
13	0x3df51b5c	0.11968109
14	0x3d7b9f76	0.06143137
15	0x3daadae3	0.083425306
16	0x3cc680b2	0.024231289
17	0x3d345b83	0.044032585
18	0x3e0096c8	0.12557518
19	0xbd3bc144	-0.04583861
20	0xbc955dd6	-0.018233221
21	0x3c9cfc11	0.019163163
22	0xbd9d8d3e	-0.076929554
23	0x3d395c0e	0.045253806
24	0x3ddf1376	0.10892384
25	0xbdcd1b43	-0.100149654
26	0x3d0ca591	0.034337584
27	0xbd934fff	-0.071929924
28	0xbdd23b7f	-0.10265254
29	0xbd34b410	-0.044117033
30	0xbd041c3d	-0.032253493
31	0x3dc55ca2	0.09636809
32	0x3d825427	0.06363707
33	0xbda29a90	-0.07939637
34	0x3d63c5d5	0.05560859
35	0x3db1ed50	0.08687842
36	0xbcd3a928	-0.025837496
37	0xbd983bfc	-0.07433316
38	0x3db9cb67	0.09071999
39	0xbd3b971d	-0.04579841
40	0xbd103d1e	-0.035214536
41	0x3d7cebdd	0.061748374
42	0xbda3df08	-0.08001524
43	0xbe11ce35	-0.14238818
44	0x3d6ed205	0.05830576
45	0xbd5c76a8	-0.053824097
46	0xbdefc636	-0.117077276
47	0xbc919b1c	-0.017774157
48	0xbdfdbb6c	-0.123892635
49	0x3bb0878e	0.005387253
50	0xbdedbf4e	-0.11608754
51	0xbdbdcc2a	-0.09267457
52	0x3e004d60	0.12529516
53	0x3dc0369d	0.09385417
54	0xbb922da5	-0.0044610077
55	0x3bfa5b00	0.0076402426
56	0xbde453b3	-0.11148777
57	0x3d64404a	0.055725373
58	0x3d333fc8	0.043762
59	0xba1a9ff5	-0.0005898469
60	0x3cf0cc63	0.029394334
61	0xbd9fa810	-0.07795727
62	0xbdaa9597	-0.08329313
63	0x3c5c5e12	0.0134501625

linear.4.weight f4 [3, 64]
0	0xbd495e08	-0.04916194
1	0x3d830f58	0.06399411
2	0x3e6f6875	0.23379691
3	0xbd92b4ff	-0.071634285
4	0xbd6acfe4	-0.057327166
5	0xbdc17758	-0.09446591
6	0xbbd95099	-0.0066319224
7	0x3d9a098e	0.07521354
8	0xbe884558	-0.26615405
9	0x3d24afec	0.040206835
10	0xbda6c24b	-0.08142527
11	0xbdd50ae0	-0.10402465
12	0x3de2ee14	0.11080566
13	0x3e34d888	0.17660725
14	0x3d52d8e1	0.051476363
15	0x3cc9052e	0.024538603
16	0xbe07e85d	-0.13272233
17	0x3d0961e4	0.03354062
18	0x3ceb2201	0.028702738
19	0x3e14c75b	0.14529173
20	0xbe0986fc	-0.13430399
21	0xbda72b28	-0.08162528
22	0xbe9bbe1a	-0.30418473
23	0xbbe9f31c	-0.0071395766
24	0xbccd4ff8	-0.025062546
25	0x3dc4e10f	0.09613239
26	0xbdca9d16	-0.09893243
27	0x3e315a84	0.17319685
28	0xbe3496bc	-0.17635626
29	0xbdde7960	-0.10862994
30	0x3d694bb7	0.056956973
31	0x3c77e657	0.015130601
32	0x3d3d9b84	0.04629089
33	0xbc895816	-0.016765635
34	0xbd9f4eb5	-0.07778684
35	0xbe1f2fa6	-0.1554552
36	0x3da19558	0.07889813
37	0xbe0f1340	-0.13972187
38	0xbedc0cb3	-0.4297844
39	0x3d16ba23	0.036798608
40	0x3d50643b	0.050876837
41	0x3cefee4d	0.029288435
42	0x3cdff7d0	0.027339846
43	0xbe0e53fa	-0.13899222
44	0x3da2bcb1	0.07946146
45	0x3ddf6801	0.10908509
46	0x3c93c948	0.018040314
47	0xbd0bcb9c	-0.034129724
48	0x3ac09e71	0.0014695657
49	0x3b40af82	0.0029401486
50	0x3d64ab74	0.055827573
51	0x3e22b455	0.15889104
52	0x3e125fe9	0.142944
53	0xbe0ea797	-0.13931118
54	0xbd301c17	-0.04299554
55	0x3dcbdaa0	0.09953809
56	0xbdac371b	-0.08408948
57	0xbd7817c2	-0.060569532
58	0xbdd8bfec	-0.10583481
59	0x3d050667	0.03247681
60	0xbc0b0660	-0.008485407
61	0x3d495dba	0.04916165
62	0x3e0c1824	0.13681084
63	0x3e5750d3	0.21026926
64	0xbcdda117	-0.027054353
65	0xbd81ef0a	-0.06344421
66	0xba8495fe	-0.0010115502
67	0xbdc6d109	-0.09707839
68	0xbdc8b6d8	-0.098005
69	0xbd8c8605	-0.068615
70	0x3e884a49	0.26619175
71	0x3e00212f	0.12512659
72	0x3f98df79	1.1943198
73	0xbdaef55b	-0.085428916
74	0xbdbcef2c	-0.09225306
75	0xbc35eace	-0.011103345
76	0xbe6f6448	-0.23378098
77	0x3de68471	0.1125573
78	0x3e1143a5	0.1418596
79	0xbd34562a	-0.044027485
80	0x3db47887	0.08812051
81	0x3d887223	0.06662395
82	0x3e409bb6	0.18809399
83	0x3e92f28f	0.28700683
84	0xbdd73bf0	-0.10509479
85	0xbe26732f	-0.16254877
86	0xbe210afc	-0.15726846
87	0x3ded34e8	0.11582357
88	0xbe492577	-0.19643198
89	0xbd1a2550	-0.03763324
90	0xbdc1049c	-0.09424707
91	0x3d9b7e45	0.075924434
92	0xbde2f5e3	-0.110820554
93	0xbd9e56f8	-0.07731432
94	0x3d751d88	0.059842616
95	0x3b2c620b	0.0026303555
96	0xbe65e3cf	-0.22450183
97	0x3e241058	0.1602186
98	0xbdfb0576	-0.12256901
99	0x3ca1ae41	0.019736411
100	0xbdc035b4	-0.09385243
101	0xbcdd2aab	-0.026997885
102	0x3e71989a	0.23593369
103	0x3f1c2d69	0.6100679
104	0x3dff8b77	0.12477773
105	0x3e28c4b5	0.16481288
106	0xbd6f0ef0	-0.058363855
107	0xbe781915	-0.24228318
108	0x3d2d0986	0.04224541
109	0x3c278890	0.01022543
110	0x3d3f6710	0.046729147
111	0xbec5404f	-0.38525626
112	0xbd542192	-0.051789828
113	0xbda02ad5	-0.078206696
114	0xbc9bebd8	-0.019033358
115	0xbe215d00	-0.15758133
116	0x3d8b9d05	0.068170585
117	0x3d45b8d9	0.048271988
118	0xbded1b22	-0.11577441
119	0xbd8cb01c	-0.06869528
120	0x3d8d818d	0.069094755
121	0xbe06a441	-0.13148595
122	0x3dcaa7ee	0.09895311
123	0xbb084d00	-0.0020797849
124	0x3ebaa093	0.36450633
125	0x3e0c3b18	0.13694417
126	0xbe8d137f	-0.27553937
127	0x3d7482bb	0.059694987
128	0x3d86b330	0.06577146
129	0x3c2f0b10	0.01068379
130	0xbc8762d8	-0.016526625
131	0x3e0f5afc	0.13999552
132	0x3d8224ea	0.06354697
133	0x3dc893eb	0.09793838
134	0xbe85f2ef	-0.26161906
135	0xbdd7c889	-0.10536296
136	0x3fa3c9e7	1.2795991
137	0xbd998927	-0.07496863
138	0x3d292413	0.04129417
139	0xbc7a6417	-0.015282652
140	0xbf3b3f52	-0.73143494
141	0xbcbd2ba8	-0.023092106
142	0x3cfd947e	0.030954596
143	0x3d7678d4	0.060173824
144	0x3c819379	0.01581739
145	0x3dfe7676	0.124249384
146	0xbe22390a	-0.15842071
147	0x3dcf7b6a	0.10130961
148	0xbb122318	-0.002229875
149	0xbe8bde0f	-0.27317855
150	0xbea94403	-0.330597
151	0xbe045d36	-0.12926182
152	0x3eadebac	0.33968866
153	0xbdc525eb	-0.09626373
154	0x3dd6fa39	0.10496945
155	0xbd802bba	-0.0625834
156	0xbe892233	-0.26783904
157	0x3d5c9dac	0.053861305
158	0xbdda667c	-0.106640786
159	0xbd6f44b0	-0.058415115
160	0x3dd546fb	0.10413929
161	0xbdf64999	-0.120257564
162	0xbd9ba4e4	-0.0759981
163	0xbda9f4ac	-0.082986206
164	0xbdce0dc4	-0.10061219
165	0xbcd7d9c8	-0.026348963
166	0xbe0048b3	-0.12527733
167	0x3d894da3	0.06704261
168	0x3c769633	0.015050459
169	0x3e91027f	0.28322217
170	0xbd8f95b2	-0.07010974
171	0xbf7ad077	-0.9797434
172	0xbda76cb5	-0.08175031
173	0xbd7d627b	-0.061861496
174	0x3c92aa60	0.017903507
175	0xbe122bc7	-0.14274512
176	0x3d0b47ad	0.034003902
177	0x3cde841e	0.027162608
178	0xbdeb24ba	-0.114816144
179	0xbcbd67a2	-0.023120705
180	0x3dae07a0	0.08497548
181	0xbd2132c6	-0.039355062
182	0xbe2d5982	-0.16928676
183	0xbdba7c60	-0.09105754
184	0x3c540ddc	0.012942757
185	0x3d9df81b	0.07713338
186	0xbe219047	-0.15777694
187	0x3bba6afe	0.005689024
188	0x3df244fd	0.11829565
189	0x3e0be9de	0.13663432
190	0xbd0d415c	-0.03448616
191	0x3c6bba1d	0.014387635

linear.4.bias f4 [3]
0	0x3d923ded	0.07140718
1	0x3ddd660d	0.1081048
2	0x3d18b56f	0.037282404
