student_policy.pt (torch, 628634 bytes, 10 tensors)

cnn.0.weight f4 [32, 8, 8, 8]
00000000: 4a76 fdbc c9db c13c 3f02 75bc dd62 533d
00000010: d522 983c f8f3 343d 9a27 293d 6202 9fba
00000020: 0b5b 87bc 3b8c 88bb 5963 89bb 3c38 ed3c
00000030: 7231 b63c 0400 7abc 2824 9f3c 4a9e 4b3d
00000040: dd81 183d 8a1b 043d 585a c53c b1f3 113d
00000050: 284e 123d 15d7 b0bb bb33 a7ba 9539 f93b
00000060: 2fe1 c73c 5486 ffbc 5f17 dc3c 4da5 3f3d
00000070: 42f2 dc3c d3ca a5bc 19c1 63bc 3b13 fdbc
00000080: 62a0 0cbd 9c20 e8bc b44c 813c d2c9 6bbb
00000090: fd30 f7bc 4364 553d b1c9 a23c e22e aebc
000000a0: 905f bfbc a05e c23b e8d6 443d 431f 1e3a
000000b0: caea 82bb dc6a 283d 75e1 813b 5d73 e2bb
000000c0: 4073 f03c 9599 fbbc 7788 e53c 9e8d cdbc
000000d0: 8baf 5b3c cc12 a43b 084d a3bc ca86 6cbc
000000e0: b635 ea3c 6ca0 223d 41cc cc3c 4c46 ff3c
000000f0: f32e 143d 37bd a03b 081b b83b a4ed 313d
00000100: d189 e03c 6f84 0ebc c594 f33c 995a ee3c
00000110: 735c 27bb 5a77 223d aded e4bb a950 dd3c
00000120: bb55 d73c 65da 713b 6589 81bc 5e1b aebc
00000130: 8661 eb3b 9275 193d 9b82 503d 5dfe 103d
00000140: 06be 8a3b 2878 643b 01ab c03c b7e6 abba
00000150: ff48 673b 3094 1b3d ea37 c7bc aee1 93bc
00000160: fd6b 2ebc 9a6e a6bc d3eb 6abc d2f5 153d
00000170: fb80 073d 5772 153d c29b a8bc 6996 b93c
00000180: f7cd c73c 0bd0 823c 71de 05bb 4033 afbb
00000190: 3615 173d d582 e23c f9e6 ac3c 6a53 d3bc
000001a0: 1d82 1cbd a3c2 323d 3a9a ae3c e1e3 543d
000001b0: 2a1e f3bc 5d4e e8bb c13c f5bc c30e 4c3d
000001c0: 97a5 cd3b d589 b33c bcb2 4e3d f22d 853c
000001d0: 9f1c b33c fcec 95bc 170d 843c d1a5 253d
000001e0: e1a9 d9bb a371 dbbc 5184 f4bb 3d00 643c
000001f0: 7178 283d 217e 8e3c 9f6c 82bc d37a 403c
00000200: 2130 4ebc 486c 3a3c 3cee 413d c2c3 b0bc
00000210: 81a6 d739 8609 36bc ad9b 413d 9998 eabc
00000220: c5b2 04bc c26f febc ab68 4abc b949 32bb
00000230: c98a a83c 12a0 dabc 88e6 c33b ad90 7bbc
00000240: 3df5 063d 78b0 a5bc a5e0 99bc 187d 243c
00000250: fc8b c4bc b8e6 8ebb df1d d13c 09ce d5bc
00000260: 55e8 89bc a438 063d 2d7c 503d 460c 513d
00000270: ca27 4d3d 5967 483d a23d 59ba 398d 2fbc
00000280: 6b49 14bc 2669 8c3c 09d8 ba3c d2ce 5fbc
00000290: 5f68 4a3d 7044 883a cd6a 2e3d 50cf 0d3c
000002a0: 44f7 9c3c 35fa 4d3c 4585 0d3d 3eea 4bbc
000002b0: c544 013d 71b0 44bc b97d 053d 21a8 3bbc
000002c0: 76be 3d3c 65ec 17bd 5eb8 3bbc c51a 513d
000002d0: ec83 3e3d 57d1 cbbc ce6c 84bc 3944 ffbc
000002e0: d204 863b 1e40 09bc 35e0 763c a804 db3c
000002f0: aced ca3c a974 ed3b 39fe 8c3c 1a0d e6bc
00000300: 4ad8 163d 7a72 e7bc 579a 4abb a64c c939
00000310: c112 5fbc b84c 5a3c 68a3 fc3c c7a4 06bc
00000320: bc4d 37bc 6c31 75bc 0a75 133d 193f 81bc
00000330: 9594 383d 2302 b03c 455b cfbc 0ab4 813b
00000340: d3f8 763c b068 593d 895a 473b 3347 afbc
00000350: b4cb 37bc d79b bc3c afe1 203d 5a48 153c
00000360: a68c 263d 96d8 b5bc fdef d0bc 4af8 a13c
00000370: 6c1d 263d deb5 5b3d 0adf 3e3c 5632 7e3b
00000380: 0658 b93c 6be5 123d 7b7a b2bc 6bb6 f1bb
00000390: 203a 363d 1e78 8438 4bd3 dfbc fbef d9bc
000003a0: 2031 b4bc 1210 af3b 636a 753c 66e5 b3bc
000003b0: 0701 623d e6f0 7d3c 7b50 563d 614e 09bc
000003c0: a9c4 033d 1431 9b3c 5a9f b9bc 0b80 373d
000003d0: 8eb5 2b3d 2beb 96bc 7154 3f3d e7e9 46ba
000003e0: d729 98bc d91b 1abc 0a13 6ebc ed01 4e3d
000003f0: 1edd e7ba e088 3ebc 3d1b 593d e719 16bd
-0.030940194 0.023664372 -0.014954149 0.051607955 0.018571297 0.04417798 0.041297533 -0.0012131447
-0.016522905 -0.0041671074 -0.0041927514 0.028957479 0.022240374 -0.015258793 0.01942642 0.049711503
0.037233222 0.032252826 0.02409093 0.035632793 0.035719067 -0.0053967335 -0.0012756506 0.0076057413
0.024399368 -0.031191982 0.026866613 0.046788502 0.026970986 -0.020238316 -0.013901019 -0.030892959
-0.03433264 -0.028335862 0.015783645 -0.0035978449 -0.030174727 0.05209757 0.019871565 -0.02126259
-0.023360997 0.0059316903 0.048056513 0.000603188 -0.003995274 0.041117534 0.003963644 -0.006910725
0.02935183 -0.030712882 0.028019173 -0.025091942 0.013408552 0.0050071236 -0.019934192 -0.014436433
0.028590064 0.03970377 0.02499974 0.03116145 0.036177587 0.0049053687 0.0056184568 0.043439522
0.027409466 -0.008698567 0.029734025 0.029095935 -0.0025537282 0.039664604 -0.006986341 0.027016
0.026285997 0.0036903855 -0.015812585 -0.021253284 0.0071832566 0.03746564 0.050905805 0.03539883
0.0042340783 0.0034861658 0.023519041 -0.0013115023 0.0035291312 0.03798312 -0.024318654 -0.018051948
-0.010645864 -0.02031641 -0.014338451 0.036611386 0.03308199 0.036485996 -0.020582084 0.022654729
0.024390204 0.015968343 -0.0020426775 -0.0053466856 0.036885463 0.027650276 0.02110623 -0.02579661
-0.038210023 0.04364265 0.021313775 0.051975135 -0.02967747 -0.0070894198 -0.029936196 0.049818765
0.0062758434 0.02191631 0.050463423 0.01625726 0.021864234 -0.01830148 0.016119523 0.040441338
-0.0066425656 -0.026787585 -0.0074620624 0.013916072 0.041130487 0.017394127 -0.015920935 0.011748034
-0.012584717 0.011378355 0.04734634 -0.02157772 0.0004113205 -0.011110669 0.047267605 -0.028637217
-0.008099263 -0.03105915 -0.012354056 -0.0027204587 0.02057399 -0.026687656 0.005978409 -0.015354318
0.03294872 -0.020225748 -0.018783877 0.01003959 -0.023992531 -0.004361 0.025526939 -0.026099222
-0.016834417 0.03276886 0.050899673 0.051037095 0.050086774 0.048926685 -0.0008287077 -0.010714822
-0.009050707 0.017139982 0.022808092 -0.01366015 0.049415942 0.0010396373 0.042582322 0.008655384
0.019160874 0.012571861 0.034550924 -0.012445984 0.031559724 -0.012004958 0.0325906 -0.011453659
0.011581054 -0.037090678 -0.011457531 0.05105092 0.04651253 -0.024880094 -0.016165163 -0.03116046
0.00408993 -0.008377103 0.015068104 0.026735619 0.024771534 0.007246573 0.017211067 -0.02808242
0.036827363 -0.028252829 -0.0030914748 0.00038394815 -0.013615311 0.013323955 0.030839637 -0.008217997
-0.011187967 -0.014965396 0.03600029 -0.015777158 0.045063574 0.021485394 -0.025312075 0.00395823
0.015073973 0.053078353 0.0030418953 -0.021396255 -0.011218 0.023023529 0.03927773 0.009111488
0.040661477 -0.022198003 -0.02550506 0.019771714 0.040555403 0.05364024 0.011649856 0.0038787327
0.02262498 0.03586332 -0.021786919 -0.0073764822 0.044489026 6.316624e-05 -0.027322432 -0.02660369
-0.02199608 0.005342492 0.014978978 -0.021959972 0.05517676 0.015499329 0.052322846 -0.008380503
0.03216997 0.0189443 -0.022658993 0.044799846 0.04192119 -0.018422684 0.04671139 -0.0007587955
-0.018574638 -0.009406053 -0.014530906 0.050294805 -0.00176898 -0.011629313 0.053004492 -0.036645796

cnn.0.bias f4 [32]
00000000: 41c5 0abd fdc7 c93c 2ec6 813a 46a2 233d
00000010: c313 183c a043 a8bb db20 863b 1be9 99bc
00000020: 58b5 c23c 0519 0a3d 6e14 e6bb 8246 28bd
00000030: 0781 aebc 5b0c 5ebb c19d 283d 60c8 b63a
00000040: 6ef6 073d 7b18 0ebb f676 4039 a1c3 c63c
00000050: e087 20bd 48df a3bb 635e 3a3d f7e4 7b3c
00000060: 2630 b6bc 84e7 1e3d 0674 a33c 9270 1cbd
00000070: 13e2 b73c 7a67 08bd ba2f b83b e787 9ebc
-0.033879522 0.024631495 0.0009900981 0.039949678 0.009282055 -0.0051350147 0.004093272 -0.018787911
0.023768112 0.033715267 -0.0070214784 -0.041082866 -0.02130176 -0.0033881876 0.04116607 0.0013945214
0.033193998 -0.0021682072 0.00018354863 0.024263205 -0.03919208 -0.0050009824 0.04550017 0.015374414
-0.022239756 0.03879501 0.019952785 -0.038193293 0.022446668 -0.033301808 0.005620924 -0.019351913

cnn.2.weight f4 [64, 32, 4, 4]
00000000: 51f7 a2bc efd7 cbbc 4e58 8d3b 0639 113d
00000010: f956 2d3d 2b51 96bc 6022 1fbd d125 083a
00000020: 355b 103d 8bcd bfbb 2f4c 443d 7e56 a6bc
00000030: 1706 e1bc 7fbf b63b 9787 56bc aa01 21bb
00000040: a43b 843a 40b9 bd3c 1b1c 8b3c 7134 023d
00000050: 3861 54bc b948 29bc ee3f 32bd d0dc 613c
00000060: e648 1cbc e62b 513d 164a 473c bf99 b43c
00000070: 02b1 e23c 75ad ff3b 01d0 e9bc 90f9 0d3d
00000080: 29bf 51bb c659 293d 9b96 21bd c8ee fdbc
00000090: b092 163d de25 813c ade4 a43c 8d49 84bc
000000a0: 0fb0 04bc 2b8c b23c 133b a0bb d153 febc
000000b0: 7fe3 e0bc d029 29bc 0640 a2bc 532d 14bd
000000c0: dc80 6eba 8da1 4cbb 52a7 033c ee26 99bc
000000d0: ac54 92bc dc38 00bb 561f dc3c 5a4e c5bc
000000e0: 418c 323d 05c4 323d efc8 cabc 3d90 4bbc
000000f0: 318f 0abd 61b5 263c 8f60 e5bb 5c0e 1dbd
00000100: 8caf 233d 28ca 6fbc babf 1abd 6158 593c
00000110: e2ac 233d 58f6 4c3b 8202 60bc 337d 87bb
00000120: 978d 42bc 1167 c43c 6fec 3cbd 8ea1 bd3c
00000130: 78d1 c73c 5bb6 af3b 53c2 323c f166 dd3b
00000140: 3d74 ee3c 7d02 963c 1c60 f0bb a6f6 27bd
00000150: e483 c43c 8856 d83c 4552 c2b8 8ec0 2f3c
00000160: 3fef 073d 277a 6e3c 4b9c a03b 600f 723c
00000170: ff44 c53c 78ad 2fbc 7d76 823c 9d22 28bd
00000180: 07b5 7bbc b7e3 1d3d cc92 e93c c170 e6bc
00000190: 87d9 ebbb a799 f33c 4a70 173d 53f7 c53c
000001a0: 15af a4bc 3d74 3d3c 0aff 803b fae3 4239
000001b0: 0b09 b23c 5c7a de3b 4254 edbc b50c 1abc
000001c0: 178c debc 6ff3 ba3c 06c6 57bc 76f3 2ebd
000001d0: 31c2 363d e608 41bd 6bd4 d33c eec1 2f3d
000001e0: 62b0 1c3d 071c 3abd 8a79 a3bb 6ff1 d53c
000001f0: 4ce5 c7bc d3cc 303c 4f68 dc3a 8ee1 42bd
00000200: ccfa 02bd 4b57 e6bc e4d9 d0bc 98e7 70bc
00000210: 3506 373c 322d a4bc 0180 ffbc 5a79 e93c
00000220: 2403 1e3c 78d1 15bd df87 cbbb f6a8 e53c
00000230: be1d 25bb 9698 c9bc 88a2 123c 820a 1f3c
00000240: dafc 2f3c 084a d4bc 9f38 033c ad0b e5bc
00000250: 7603 433d b427 0abd 1ab1 ffba 71b7 e43c
00000260: dd87 033d 8f06 00bd 3920 2cbd 3731 eabc
00000270: 1622 08bd 506f 043d 9f08 f5bc 19ae 26bd
00000280: 4fb7 36bb 17d8 0a3c f9ef 1c3d 3f2b 603c
00000290: b491 afbc 0bb0 35bd 4ad3 7e3c cee0 123c
000002a0: a782 5b3d df84 7fbc 08a5 9fbc 9367 f8bb
000002b0: 08d3 2a3d 6316 34bd ddaa d83b 8598 a93c
000002c0: 3128 d33b ca73 903a d564 c43c 9a94 0a3d
000002d0: f83a e9bb 5b2a 213d 942f 4abc 431c 65ba
000002e0: 1b12 613d 6bed 1fbd 020c 53ba 538d da3c
000002f0: e0e6 b9bc 2501 0e3d f612 2a3c 4492 e9bc
00000300: f565 5f3d 8097 7a3c 2584 80bc de31 3d3d
00000310: 6b85 6fbc e126 af3c c95b 34bd b10f 873c
00000320: ee2e cf3c ec9f 1abc 17ca ce3c 1862 433d
00000330: d9dd 9bbc a72f e3bc 3149 23bd 5fcb 563b
00000340: cb03 233d 39ae b0bc 9a0e bf3c 2ab6 c9bc
00000350: 5aec 2f3d f03a f73c 83a3 5abd a6c3 debc
00000360: 6104 fe3c 6e94 98bc a0cc 913c c4c9 b6bc
00000370: 6719 963b a8c0 ef3c c5be efbb 3ad6 da3c
00000380: 1575 16bd 222d 9ebb eb2a f5bc ac07 c03c
00000390: 26ba a23c 0066 b7bc 56bf 153b 3a10 1dbc
000003a0: d3f9 18bd 0ed4 be3c f7e6 0b3d a150 14bd
000003b0: b382 f83c b01f 343d 0d28 e53b 75dc 953c
000003c0: f592 3dbc 3309 5a3c 91ca 163d 1447 f4bc
000003d0: 1e63 47bc f915 d1bb 2065 8a3c 5111 aabc
000003e0: 1ee7 3c3d 01e2 273c c48f 45bd 076a b9bc
000003f0: 452c f13c 2697 be3c 194c e7bc 76ea 683b
-0.01989332 -0.024883239 0.0043135053 0.035454772 0.04231927 -0.01834925 -0.038851142 0.00051936234
0.03524323 -0.00585336 0.047924217 -0.020304915 -0.027468724 0.0055770273 -0.013093851 -0.0024567642
0.0010088575 0.023159623 0.016981175 0.031788293 -0.012962632 -0.01033228 -0.043518 0.013785556
-0.009538865 0.051067255 0.01216366 0.022045968 0.027672295 0.00780266 -0.028541567 0.03466183
-0.003200481 0.04134538 -0.03945027 -0.030997649 0.036760986 0.015765127 0.020128572 -0.016148353
-0.008098616 0.021795353 -0.0048898547 -0.031045826 -0.027452229 -0.01032491 -0.01980592 -0.036176037
-0.0009098181 -0.0031224221 0.008035498 -0.018695321 -0.01786264 -0.001956514 0.02687041 -0.024085212
0.043590788 0.04364397 -0.024754016 -0.012424526 -0.033827964 0.01017508 -0.007000036 -0.038343772
0.039962336 -0.0146356 -0.0377805 0.0132657 0.039959796 0.0031274762 -0.013672473 -0.004134798
-0.011874578 0.023974927 -0.04612392 0.023148324 0.024391875 0.0053623146 0.010910588 0.0067566563
0.029108161 0.018311733 -0.007335676 -0.041006707 0.023988672 0.026408449 -9.265965e-05 0.010727061
0.033187147 0.014555491 0.004901444 0.0147741735 0.024080751 -0.0107225105 0.01592564 -0.041048635
-0.0153629845 0.038547244 0.028512381 -0.028129937 -0.007197562 0.029736353 0.03697232 0.024165785
-0.020103017 0.011563358 0.003936653 0.0001858621 0.021732828 0.0067894887 -0.028970841 -0.009402444
-0.02716641 0.022821156 -0.013169771 -0.04271265 0.04461879 -0.047127627 0.025858125 0.042909555
0.03825415 -0.045436885 -0.004988854 0.026116101 -0.02440133 0.010791021 0.0016815754 -0.047578387
-0.03197746 -0.028117796 -0.025494523 -0.014703654 0.011170913 -0.020041082 -0.031188967 0.028500248
0.0096443035 -0.036576718 -0.0062112655 0.028034668 -0.002519473 -0.024608891 0.008949883 0.009707095
0.010741437 -0.025914207 0.008009105 -0.027959669 0.047610722 -0.03372927 -0.0019507736 0.027919503
0.03211199 -0.031256255 -0.042022917 -0.02858792 -0.033235632 0.03233272 -0.029911337 -0.040693376
-0.0027880257 0.008474371 0.038314793 0.013682186 -0.021431781 -0.04435734 0.015553305 0.00896473
0.053591397 -0.015595644 -0.019487873 -0.0075807064 0.04170516 -0.043966662 0.0066121654 0.02070261
0.006444 0.0011020836 0.023973862 0.033833124 -0.0071176253 0.039347034 -0.012340445 -0.0008739868
0.054948907 -0.03904478 -0.00080508005 0.026678717 -0.022693098 0.03466906 0.010380497 -0.028512128
0.054540593 0.0152949095 -0.015688011 0.046190135 -0.014619212 0.021380844 -0.044032846 0.016486974
0.025290933 -0.009437542 0.025242848 0.04770097 -0.019026684 -0.027732683 -0.039864723 0.0032775027
0.03979854 -0.02156745 0.023322392 -0.024622995 0.04295001 0.03017947 -0.053378593 -0.027192902
0.031007947 -0.018625464 0.017797768 -0.022313006 0.004580665 0.02926667 -0.0073164427 0.02671348
-0.036732752 -0.0048271576 -0.029927691 0.023441158 0.019864153 -0.022387505 0.002284964 -0.009586388
-0.037347626 0.023294475 0.034155812 -0.036209706 0.03033576 0.043975532 0.0069933 0.018293599
-0.011570682 0.013307857 0.036814276 -0.029819049 -0.0121696275 -0.006380793 0.016893923 -0.02076021
0.046118848 0.010246755 -0.04823281 -0.022633566 0.029440055 0.023265433 -0.028234528 0.003554014

cnn.2.bias f4 [64]
00000000: 08c2 d2bc 860c 7abc 2885 7cbc 4f50 12bd
00000010: 5175 2dbd 3362 8e3c 95e3 d13b a4e9 d2bb
00000020: bfbd c03c 17c2 9c3c 3d27 febc 2166 62bb
00000030: a8f6 f43b 39be f0bb 29c3 1a3d ff82 bbbc
00000040: 30de b23c 887d ea3c 65bf 02bd 22cf 01bd
00000050: c4ec d93c 96e2 80bc 4a30 0a3d fea7 063c
00000060: fbd8 d8ba fa64 1b3d 238a 05bc e33f 033c
00000070: 0af8 f5bc e10e 9038 6d76 2e3d 9755 3c3d
00000080: 6f0c 6ebc 0f01 9cbc c1c4 313d 7d73 353d
00000090: 0b5a 8ebb 1cbe d0b9 bf3c f8bc 8666 00bd
000000a0: 907c 033c 052d 0cbd 4bc4 a93c 98eb 213d
000000b0: da0f 4ebc d9a3 ebbc 0287 2bbd bd82 64bb
000000c0: 1020 58bc f779 463d 3cfa da3c 3c45 213d
000000d0: 3508 313d 4aae b63b d38d c4bc f51f 98bb
000000e0: e207 e5bc 857e 9ebc d1a1 18bd fa21 973c
000000f0: e09b febc a637 363b c771 173d cb4f cabb
-0.025727287 -0.015261775 -0.015412606 -0.03572112 -0.04234821 0.01738081 0.0064053037 -0.0064365435
0.023527978 0.019135518 -0.03102457 -0.0034545737 0.007475693 -0.007346895 0.037783775 -0.022889612
0.021834463 0.028624311 -0.03192081 -0.031691678 0.026602156 -0.015733045 0.03373746 0.008218763
-0.0016544157 0.037938096 -0.00815061 0.008010837 -0.0300255 6.8692265e-05 0.04259341 0.045980062
-0.014529332 -0.019043474 0.04340053 0.04429959 -0.00434423 -0.00039814494 -0.030302403 -0.031347774
0.0080253035 -0.03422262 0.020723483 0.03953132 -0.0125770215 -0.028764652 -0.0418768 -0.0034867965
-0.013191238 0.04845616 0.02673065 0.039372668 0.043220717 0.005574976 -0.023993408 -0.0046424814
-0.02795786 -0.019347439 -0.037263695 0.018448818 -0.031080186 0.0027804165 0.03697374 -0.006174063

cnn.4.weight f4 [128, 64, 3, 3]
00000000: 4955 9e3c 307a 15bc ae06 f9bc 3caf 65bb
00000010: 0835 a93c d0a2 423b 015e 4dbd 668f debc
00000020: a696 d2bc 267a 27bc 8a32 d93b 6a1c f6bc
00000030: 9909 1f3d 40d1 a7bc 24af ba3c 09c5 d73c
00000040: 7c57 cb3c cc73 c4bc 4633 2ebd 8f3f 48bd
00000050: a873 0a3c 4899 703c c964 e7bb 34e0 a23a
00000060: 1803 173c eb8a 9d3b 4414 e4bc 4a67 c33c
00000070: c689 893b 52b1 fc3c 3174 2c3d 406e bf3c
00000080: 7d4b aaba 05e5 1f3d fbe1 283d 97c2 2339
00000090: d479 033d 46a9 cebc 55be b13c c241 2bba
000000a0: 977c 47bb 3ecb 4abc f319 233d b890 17bc
000000b0: ab15 ffbc c7fc 9dbc f82e 81bc f959 d73c
000000c0: 45b9 0e3d c2eb 583c 64d4 39bb 030d 98ba
000000d0: 155d afbb c5d6 27bd 73be babc 50a6 b23c
000000e0: e14a c0bb 1613 27bd 9919 3cbd 9214 01bb
000000f0: 301e c9bc 868e e8bc 20ed 34bc 37a5 f33c
00000100: d046 c93c 37b8 78bc 87bb 073d 560c 073d
00000110: 5ff5 4f3c 769c 813c c508 7abc a999 103d
00000120: fe17 1dbd 459c 14bd 93bb 10bd 98e1 d1bc
00000130: 9a73 75ba be3e 41bc 9611 c8bc 6f2e eb3c
00000140: da34 613c 1b9f 823c d43c 6cbb 063f a63b
00000150: 17fb 953c f281 53bc 2bfb caba df7b 70bc
00000160: ea83 c4bc 1066 953b a0a5 0f3d f6b5 83bb
00000170: 4bf1 003d 2e73 0d3d a513 91bb 6196 c6bc
00000180: b2f4 133d a498 063d 0da5 9ebc 544b 2bbc
00000190: d08a 7abb 1dfc 00bd 337a a5bc 2ce4 d0bc
000001a0: 3231 0d3d f2a8 f03c b2c3 fdbb 4dd4 853c
000001b0: f819 9dbb ce7c f83c ef6d d53c 4976 553a
000001c0: 26d2 0e3d 6fb3 abbc 67cc 143c e4f6 cfbc
000001d0: 96a9 f0bc 0b29 cd3c 464c 013d e36f 1f3d
000001e0: 457c 34bc bc56 373c 18fd ffbb e664 143d
000001f0: b1ae 353d cf21 f63c e391 8bbc a92e 063d
00000200: 9d55 093c 3d0f 653c d98a e33a 36a6 3eba
00000210: 0b1a 283d 26ef df3c 98ac df3c 5e58 71bb
00000220: 60b0 3e3d 4c04 223d 8453 05bc f57c 1cbc
00000230: 4fed e9bc 9eac 133d e65d b8bb e4d8 583b
00000240: 71be c8bc 7e28 b73c 48a2 33bc 5210 0bbd
00000250: 164b 89bc 004b 9c3b b112 b8bc ca45 643c
00000260: c971 0dbd 326e a73c 82e4 7bbc 4642 823c
00000270: a50e 2cb9 11b6 0a3d 70cc 05bd 7b50 e6bb
00000280: 6406 89bc f87a 0cbd 1b48 c73c b371 28bd
00000290: 8718 94bc 47f4 62bc a8e4 943c e236 6abd
000002a0: f53e 9b3c 8d32 45bd a84a 8bbc 1e5f 15bd
000002b0: e469 943c eb5f 123c 6ff1 64bc 026a 10bd
000002c0: 2db9 2b3d 488f 8bbb bc2d a13c f59c fb3c
000002d0: c088 133c f2bb 033c 35da 9f3c 3676 be3c
000002e0: 5535 a83c f2bf 2b3c a837 2cbd bade 853b
000002f0: a4af d93c e41a 133d 0b9c 07bc 2ddd f0bb
00000300: da0b 573d ec5f 67bc dcde c5bc 9725 013d
00000310: 2a86 87bc 68c3 8dbc afa8 02bc 35cd 7bbb
00000320: 5a0e 4a3c ac1d c13c bb37 973c 43c7 fa3c
00000330: 4895 513b 63e6 11bd ec83 7d3c da19 9d3c
00000340: 5d3c 9f38 2d66 563c 9d59 d83b bfaa 10bc
00000350: 9bdf e13c fd00 acbc a36f 9e3c f817 b2bc
00000360: ba7f ff3c 215c 9dbc de92 61bc a721 413b
00000370: 77dd 6dbc 98d5 1d3d 76d8 85bc 4010 28bc
00000380: 603f ec3b d428 1cbd 6dcc 7bbb a399 f03c
00000390: 3f60 de3c 871a dcbb 69e0 e83c f69f 66bc
000003a0: 4759 ba3b 068c 073d 4884 dabc 64fe 1ebd
000003b0: df0c f03c 38e5 003d b970 9fbc e866 803c
000003c0: f685 0d3d d59f 0dbd 1efe f13c b7c7 a13c
000003d0: 3028 d73c f0bb c6bb 2e1a d93c 032a 5a3c
000003e0: d0c4 85bc fd24 c2bc df6b 073c dfae 17bc
000003f0: 2675 053c 54b7 6bba 0005 3bbd 9fdd 0dbd
0.019327777 -0.00912337 -0.030398693 -0.0035047075 0.02065517 0.0029699095 -0.050138477 -0.027167987
-0.0257066 -0.010221994 0.006628339 -0.030042846 0.038827512 -0.02048552 0.022788592 0.02633907
0.02482199 -0.023980998 -0.042529367 -0.04888874 0.008450426 0.014684983 -0.007061575 0.0012426437
0.009217046 0.00480782 -0.027841695 0.023852963 0.004197332 0.030846272 0.042102996 0.023368001
-0.0012992468 0.03903677 0.041231137 0.00015617382 0.032098606 -0.0252272 0.021697203 -0.0006532931
-0.0030439252 -0.012377558 0.03981967 -0.009250812 -0.031138262 -0.019285573 -0.015769467 0.02628802
0.034844656 0.013239803 -0.0028355354 -0.0011600557 -0.0053516724 -0.040976305 -0.022795891 0.02180782
-0.0058683013 -0.040789686 -0.04592285 -0.0019696099 -0.024550527 -0.028388273 -0.011042863 0.029741867
0.024569899 -0.015180639 0.033137824 0.03297075 0.012692778 0.015821677 -0.01526088 0.03530279
-0.03835296 -0.036281843 -0.035335135 -0.025620267 -0.0009363234 -0.011794744 -0.024422448 0.028708665
0.013745511 0.015945008 -0.0036046999 0.005073431 0.018308206 -0.012909399 -0.0015486231 -0.014677971
-0.023988683 0.004559286 0.03507006 -0.004019494 0.031480115 0.034533672 -0.0044273906 -0.024241628
0.03612203 0.032860413 -0.019365812 -0.010454971 -0.0038229711 -0.031490434 -0.02019987 -0.025499426
0.034470744 0.029377434 -0.007744276 0.016336584 -0.0047943555 0.030332949 0.026053397 0.0008142931
0.034868382 -0.020959584 0.009081936 -0.025386281 -0.02937774 0.025043985 0.03156688 0.038925063
-0.011015956 0.011190113 -0.0078121535 0.036229037 0.04435605 0.030045418 -0.017037338 0.032759342
0.008382228 0.013980684 0.0017360105 -0.0007272692 0.04104046 0.027335715 0.027303979 -0.0036826353
0.046554923 0.03955488 -0.008137587 -0.009551276 -0.02855554 0.036053292 -0.005626428 0.0033088261
-0.024504872 0.022358175 -0.010963984 -0.03395111 -0.016759437 0.004769683 -0.02246985 0.013932655
-0.034532342 0.020438287 -0.015374305 0.015900742 -0.00016408654 0.03386504 -0.03266567 -0.007028637
-0.01672668 -0.03429696 0.024326375 -0.041124057 -0.018078102 -0.013852186 0.018175438 -0.057181247
0.018950919 -0.048143912 -0.017003372 -0.036467664 0.018116899 0.008934001 -0.013973578 -0.035257347
0.041924644 -0.004259024 0.019675128 0.030714491 0.009004772 0.008040415 0.019513229 0.023249727
0.020533243 0.010482775 -0.042045265 0.004085389 0.02657301 0.035914317 -0.00827695 -0.007350585
0.052501537 -0.014121991 -0.02415412 0.03152999 -0.016543467 -0.017305091 -0.007974788 -0.0038421873
0.012332523 0.023573719 0.018459192 0.030612594 0.0031979848 -0.035620105 0.015473347 0.019177366
7.592954e-05 0.013085884 0.0066024796 -0.008829772 0.027572444 -0.020996565 0.019340342 -0.021739945
0.031188834 -0.01920897 -0.013767926 0.0029469521 -0.014518133 0.038533777 -0.016338568 -0.010257781
0.0072097033 -0.038124874 -0.0038421408 0.029370135 0.027145503 -0.0067170295 0.02842732 -0.014076224
0.005686912 0.03309252 -0.026674405 -0.038816825 0.029303012 0.0314686 -0.01946293 0.01567407
0.034551583 -0.034576256 0.029540118 0.019748552 0.02626428 -0.0060648844 0.026501741 0.01331568
-0.0163292 -0.023699278 0.008265465 -0.009258001 0.008145606 -0.00089918566 -0.045659065 -0.034635182

cnn.4.bias f4 [128]
00000000: d23a 06bd ea01 14bc b018 d13b 2c9a 3dbc
00000010: 250b 953b 0b7b 0fbd 9dad 343a 5efb c53c
00000020: d683 bb3c d1a9 113d 2404 e43b 7813 1ebd
00000030: 30d8 2ebd 6b8a 9f3c f97c 133d 017e a03b
00000040: e296 be3a 5053 adbb b983 f8bc 7ade bb3c
00000050: eeca d23c 5e17 313d 9998 2ebd 250f abbc
00000060: b04f 55bc af3a 2fbd fc8d 13bc 5b79 9f3c
00000070: 50b4 29bd 2651 963c e34c ca3c bf7d 28bc
00000080: f2e8 19bd e81b c0bc 6603 a5bc 369e 663c
00000090: ddee 06bb ae7b 14bd 55d3 1dbd 3566 7a3c
000000a0: 0d07 1c3d 36cf 2d3d 7e1d cbbc 459d 013a
000000b0: 9999 b83c 4c21 c3bc 0530 403b 7a01 07bd
000000c0: 0d32 fc3c 9943 a2bc 2aa9 593c bd9e 393d
000000d0: 5e91 edbb 3d50 0fbd 33ba 103d 794b fdbb
000000e0: cbbf 253d ef96 a83b 56b6 6dbc 7316 883c
000000f0: d388 8e3c 4cd7 073c 14dc ab3b 0643 9fbb
00000100: 43f2 2c3d 87bc f23b 7ba5 353d 00ce a3bc
00000110: 0a25 f4bc 9395 a83c fe5f 193d f82c 0b3d
00000120: 7d09 dc3c 040b 98bc 9043 193d 8e2c 063d
00000130: ff63 07bd d057 c63c dec5 373c 5c42 8c3c
00000140: d94f 123d 679f 04bd 1ff6 1f3d c156 8f3c
00000150: 82f6 afbc dfa8 99bc 1b4a 8cbc 9266 a73c
00000160: e3ed 00bc 98b2 70bc 2c1b 063d 64bd a93b
00000170: faec 193d d47c b0bc 5a3c 523a 7c22 a23c
00000180: f855 11bc ff99 dfbc 5713 f9bc fc2e 08bd
00000190: a8d5 643c de7a 03bd e2b2 163d 7649 0dbc
000001a0: 953b bbbc c016 9cbc 6177 3abc c7ed 1f3d
000001b0: add4 c6bc 452f b9bc e6fd 0f3c 1045 6c3c
000001c0: f0c3 22bc f3ae db3b 2602 a0bc da2a 88bc
000001d0: 6d3f 133d d5e0 88bb 5833 913c 8f7f 233c
000001e0: 7d20 9fbc 9161 e4bc 587b 7dbc dbcf 203d
000001f0: c0d3 0d3b 5da6 6cbc 2f9f 2f3c 5072 31bd
-0.03277094 -0.0090336595 0.006381117 -0.011572402 0.0045484477 -0.035029452 0.00068923255 0.024167713
0.022890013 0.03556234 0.0069585014 -0.038592786 -0.04268664 0.019475183 0.036007855 0.0048978333
0.0014540816 -0.0052894726 -0.030336248 0.022933234 0.02573153 0.043235175 -0.042625997 -0.020881245
-0.013019487 -0.042780574 -0.00900602 0.019467046 -0.041431725 0.018349241 0.024694866 -0.010283886
-0.03757567 -0.023450807 -0.020143222 0.014075806 -0.002058915 -0.036250763 -0.03853162 0.015283157
0.03809266 0.04243394 -0.024794336 0.00049443945 0.022534179 -0.023819588 0.0029325497 -0.032960393
0.030785585 -0.019807624 0.013284961 0.0453174 -0.007249995 -0.03498863 0.035333823 -0.0077299443
0.04046611 0.005144946 -0.014508804 0.016612267 0.017399227 0.008291077 0.005244741 -0.0048602847
0.042223226 0.007407728 0.044347268 -0.01999569 -0.029802818 0.020579135 0.03744506 0.033978432
0.026859993 -0.01855994 0.03741795 0.032757334 -0.033054348 0.024211794 0.011216609 0.017121486
0.03572068 -0.03237858 0.03905308 0.017497422 -0.021479849 -0.018757282 -0.01712518 0.020434652
-0.007869217 -0.014691018 0.032740757 0.005180048 0.037579514 -0.021543898 0.00080198573 0.019791834
-0.008870594 -0.02729511 -0.03040473 -0.033247933 0.013966955 -0.032099597 0.03679169 -0.0086234715
-0.02285556 -0.019053817 -0.011381001 0.03904512 -0.024271334 -0.022605548 0.008788561 0.014420763
-0.00993441 0.006704205 -0.019532274 -0.016621996 0.03594916 -0.0041771927 0.017724678 0.009979143
-0.019424671 -0.027878555 -0.015471302 0.039260726 0.0021641105 -0.014443961 0.010719105 -0.043321908

linear.0.weight f4 [64, 512]
00000000: ae66 153d d6e8 343d a20c cb3b 0edb f73c
00000010: bccd 063d b5f4 0dbd 2a59 91bc de53 05bc
00000020: 43de 8b3c 38e4 2bbd a5e7 03bd 7c3c e23c
00000030: b436 573c 368f ad3b d4af 98bb 2fda a038
00000040: 8fab 76bc c89f 3abc 042d b2bc 9300 133c
00000050: b8ec 8cbb 5064 283d ca00 063d ec15 a5bc
00000060: 093f 213c a1f2 a5bc f558 0b3d 85cc 02bd
00000070: 7681 c13c be4c 483b ac2b 3b3c 964a a33c
00000080: 7c3c ce3c 5065 573c 31c2 4fbb 6134 a83c
00000090: 07a9 27bd 087d fc3b 9ade 0f3d 0510 7f3c
000000a0: a113 cdbc 007c 3c3b 062a 1c3d 9c3d 05bd
000000b0: a42f 9c3c f220 3d3c 3225 ee3b be36 b6ba
000000c0: 41fb 90bc 8e2c a83c e624 e83c f579 d5bc
000000d0: f856 45bb 25f5 b83c 0a0a a53c 5c97 dcbc
000000e0: 0e40 d53c 842d e1bb 0e0f 103d 4d85 0b3d
000000f0: 069e 933c da9d 0bbd cc47 3a3d 405a 913c
00000100: 750a eebc e5d2 d83c b059 773c e4c2 573c
00000110: 9f51 3ebc be7e 8c3c 52c4 303d 131d 4aba
00000120: b5e5 4bbc 7511 0bbd 918a 4a3b 2773 7f3c
00000130: 9a62 b839 3c72 67bc d5a6 113d b06f 943b
00000140: f3de 23bd bbb7 f1bc 4ec7 243d 70fd 5e3c
00000150: dcb9 56bc d204 02bd 500b 203d d1cf 7e3b
00000160: f079 2d3d c463 0fbd 799a bbbb 58a6 85bb
00000170: cd4b db3c b47b c9bb 4484 df3c cd37 87bc
00000180: 1a8f 6f3c a870 4ebd 53a8 2a3d a3ae c83c
00000190: 403c d63c 8a3b 2b3c 9174 5d3c bc30 dbbc
000001a0: 861d c23c 9ae1 30bd 2037 343d 8b45 9f3c
000001b0: 3e55 43bd 530e dabb 3d31 01bd f1cd 7a3c
000001c0: d02d b2bc 77e1 093c b1f5 10bd edc8 253d
000001d0: beff 753c e07d b63b adfd cf3c c487 0b3d
000001e0: 5b5d d93c 8f4a 0e3d 9f6d 2f3d c132 2fbd
000001f0: 4b41 67b9 e677 a6bc 73a4 f43c 6961 15bc
00000200: 974c 15bd a843 813c c721 0e3d d9f3 44bd
00000210: 9caf 403b dff7 fd3c b226 1f3c 7e3b 3cbc
00000220: 3c8a 22bd 85ce 00bd 124a 0f3c bc53 1a3d
00000230: b279 79bc 3ff9 223d 65dc 02bd be4f 303c
00000240: 5adf 2fbc 44ad 94bc 12dd 22bd 3293 b03c
00000250: 69f6 88bc 1256 b6bc 4bba f6bb 8aa3 363d
00000260: a248 ba3c b55d 283d 8dab 9cbc f36c 2dbd
00000270: 426c 2cbd 45a8 253c 94df 233d 3714 1f3d
00000280: f9fd c03c 5834 48bc 4931 efbb f583 773c
00000290: f294 8f3c 5839 2a3d af41 c8bc e6bb 2abd
000002a0: 684d 203d f08a afb9 0abc 84bc 6154 023d
000002b0: 99c8 f4bc 1986 1e3d 4281 2e3c 0bee edbc
000002c0: 3f71 09bd 0b16 f2bb cc85 d0bc 7d3c 343d
000002d0: a863 d53c 80a7 2abc b778 c4bc 7d13 b7bc
000002e0: 362c 223d b930 7f3c 429a 33bd 949f 03bd
000002f0: 0dc2 823c 9c28 393d 6b2d e0bc 5d15 773c
00000300: 32e6 b23c e8ab 3abd 9b86 df3c f763 00bc
00000310: 2fb7 0b3c 47d5 013d 454d ffbc e500 6a3c
00000320: 12c8 8abc df24 5abd a244 88bc 7a9d 813c
00000330: 0366 513b 4a06 2abc ff26 abbb 9a76 02bd
00000340: 72f8 d03c 9f38 1abc c889 19bd 2e1c 23bd
00000350: 4290 03bd 08d5 2ebb 1dcf d43c bac0 ab3c
00000360: 23fa f5b9 7df9 6e3c 81a3 fbbb d957 1a3d
00000370: 5186 46bb 83b1 dc3c 4050 a9bc 6504 193c
00000380: 2aa3 a03c 322e 1dbd 8e04 07bc b92f 66bc
00000390: 1e24 9d3c 6e6f df3b 3d62 263d 39f5 debc
000003a0: 4920 17bd 9c08 1b3d d165 00bd 90a5 b6bc
000003b0: 9f0a 303d a7f8 f3bc 3091 8d3c 2ce5 11bd
000003c0: 8753 a2bc 2ac6 58ba 189e 8bbb 358f ac3c
000003d0: 834f 7abc d7b1 f1bc 4ab6 f53c da93 ff3b
000003e0: 5c20 2f3c 3d1a 9f3c 7f21 da3b f2d4 b8bc
000003f0: 4317 373c 56dd 073d 80a1 fdbc 2c8e d03b
0.036474876 0.044167362 0.0061965743 0.03025582 0.032911047 -0.0346572 -0.017742712 -0.008137671
0.017073756 -0.041965693 -0.032203335 0.027616732 0.013135601 0.005296613 -0.004659632 7.6700344e-05
-0.015055551 -0.011390634 -0.02174998 0.008972305 -0.00430068 0.04111129 0.032715596 -0.020152055
0.009841689 -0.020257296 0.034020383 -0.031933326 0.023621302 0.003056332 0.011423986 0.019933026
0.025175326 0.013146713 -0.003170144 0.020532789 -0.04093268 0.0077053346 0.0351244 0.015567784
-0.025033774 0.0028760433 0.038126014 -0.03252946 0.019065686 0.011543499 0.0072676176 -0.0013901812
-0.017697932 0.020529058 0.028337907 -0.02605913 -0.0030111652 0.022577832 0.020146389 -0.026927643
0.02603152 -0.006871881 0.035170607 0.034062672 0.018019687 -0.034086086 0.045478627 0.01774323
-0.02905772 0.02646775 0.015097067 0.013169024 -0.01161614 0.01715028 0.043155976 -0.0007710021
-0.012444903 -0.033952195 0.0030905346 0.015591419 0.0003516868 -0.014126357 0.035559494 0.0045299158
-0.040007543 -0.029506555 0.040229134 0.013610229 -0.013105836 -0.03174288 0.03907329 0.0038881192
0.042352617 -0.035007253 -0.0057252017 -0.0040786676 0.026769543 -0.0061487798 0.027284749 -0.0165061
0.01462152 -0.050400406 0.041664433 0.024497336 0.026151776 0.010451207 0.013516561 -0.026756637
0.023695718 -0.0431839 0.043997884 0.01944234 -0.047688715 -0.0066545396 -0.031541098 0.015307889
-0.02175036 0.008415571 -0.03539056 0.04047482 0.015014587 0.0055692047 0.025389517 0.034065023
0.026533773 0.034739073 0.042829152 -0.042773012 -0.000220542 -0.020320844 0.029863572 -0.009117463
-0.036449995 0.015779331 0.03470018 -0.048084114 0.0029401546 0.031001983 0.0097138155 -0.011488793
-0.03968261 -0.031446952 0.008745687 0.03767751 -0.015226768 0.03978848 -0.031948466 0.0107611995
-0.0107344035 -0.018149026 -0.03976161 0.021554563 -0.01671906 -0.022257838 -0.007529532 0.044589557
0.022739712 0.04110499 -0.01912477 -0.04234023 -0.04209543 0.010110919 0.040008143 0.038837638
0.023558604 -0.012219511 -0.0072995764 0.015107145 0.017527077 0.041558594 -0.024445383 -0.0416831
0.03913632 -0.00033482118 -0.016202945 0.03181875 -0.029880809 0.038702104 0.010650935 -0.029044172
-0.033555266 -0.0073878816 -0.025454424 0.044003 0.026048496 -0.010415912 -0.023983343 -0.02234816
0.039592944 0.015575581 -0.043848284 -0.032134607 0.015961671 0.045204744 -0.027365407 0.015080777
0.021838281 -0.0455741 0.027285865 -0.0078363335 0.008527561 0.031697538 -0.031164775 0.01428244
-0.016941104 -0.05325782 -0.01663429 0.015822161 0.0031951673 -0.010377476 -0.0052231546 -0.03185139
0.025509093 -0.009412914 -0.037484914 -0.039821796 -0.032119997 -0.002667727 0.025977666 0.020965923
-0.00046916408 0.01458585 -0.0076794033 0.037681434 -0.003029246 0.026940113 -0.020668149 0.009339427
0.019609053 -0.038374133 -0.008240832 -0.014049464 0.019182261 0.0068187034 0.04062103 -0.02721654
-0.036896024 0.037850007 -0.0313471 -0.022295743 0.04297888 -0.029781653 0.017281145 -0.035618946
-0.01981522 -0.0008269275 -0.0042607896 0.02106438 -0.015277746 -0.029503746 0.029994149 0.0077996077
0.010688867 0.019421691 0.006656825 -0.022562478 0.01117498 0.033170067 -0.030960798 0.0063646045

linear.0.bias f4 [64]
00000000: 018e bdbc 7e68 44bb 3cc8 353c 6c3c c4bc
00000010: 0075 1a3c f1f1 9ebc 916c f33c e901 52bc
00000020: 58a9 06bd bca8 983c 47a7 17bc c424 13bd
00000030: 87cb 01bd 3c8d f83c e4f2 1ebd b69b 423d
00000040: 8590 0cbd ac3b fdbc 3345 32bd 08f8 c1bc
00000050: af1c 8a3c 599a fdbc c724 623b 8763 263d
00000060: 0ecb 5d3a 6998 193c 4075 56bc f213 cdb9
00000070: 3802 ffbb fc46 c8bc b91f 0d3d a049 e0bb
00000080: 04fe bfba 9868 d8bc 0e87 083d 9e00 cabb
00000090: a91a dc3c f0ff 15bd ce20 e9bc 70a0 313c
000000a0: 9440 1a3c cac5 b13c f634 c3bc f7ea 2bbc
000000b0: c302 26bd c4cd 8bbc 8d16 313d 21b2 b13c
000000c0: 74bf 293c 1368 713b 6be3 ee3c f377 d13b
000000d0: 8106 f53c d334 ac3b 8f6f f8bc 37af bebc
000000e0: 4d3b 5e3c b8e1 d53b a622 853c 53ec b43c
000000f0: 13b9 6b3b 7c18 a0bc a435 433c 3a15 123c
-0.023139002 -0.0029969509 0.011095103 -0.023954593 0.009427309 -0.019402476 0.029714854 -0.012817838
-0.032876343 0.018635146 -0.009256191 -0.035923734 -0.03168824 0.030340783 -0.038805857 0.04751178
-0.034317512 -0.030912243 -0.043523025 -0.02367784 0.01685938 -0.030957388 0.0034506784 0.04062226
0.00084607385 0.009374716 -0.013089478 -0.00039115507 -0.007782247 -0.02444791 0.03445408 -0.0068447143
-0.0014647846 -0.026417062 0.033331923 -0.0061646244 0.026868181 -0.036621034 -0.028458025 0.010841474
0.009414811 0.021700758 -0.023828965 -0.010493032 -0.040529978 -0.01706589 0.043234397 0.021691384
0.010360587 0.0036835715 0.029161176 0.006392473 0.029910328 0.0052553206 -0.030326633 -0.023276908
0.013563943 0.006527152 0.016251873 0.022085344 0.0035968467 -0.019542925 0.011914644 0.008916194

linear.2.weight f4 [3, 64]
00000000: c33a 943d 3287 7cbd 7323 453d 2e0c 953d
00000010: 9249 cf3d e00d 5fbc 0641 163b 94b6 02bc
00000020: c285 6b3d 0416 813d 2949 04bd 1d94 98bd
00000030: c069 063d 2c59 953d 2501 cabc da60 45bd
00000040: 8a90 b6bc 9bfb 503d 301a 16bd aa71 9fbd
00000050: 277e aa3c e6a5 b33d 7c57 03bd 7090 86bd
00000060: bcde 6d3d f400 f2bd 2430 64bd d1ba 983d
00000070: 9c24 68bd 5efd 92bd e054 dabd 120a cf3d
00000080: 56c8 d33d 11fb a9bd c210 083e 14d8 513d
00000090: e38f 2cbd 90f1 e93c 30a5 033e 69cd b73d
000000a0: 9854 903c b6a5 c83d 9340 b6bd ec7b cd3d
000000b0: f44a cbbd 7459 ec3d 075b 023e 7616 93bd
000000c0: 9c7d b7bb b380 fbbd 7c34 47bc f8f9 983d
000000d0: e460 bdbd e1d9 94bd 1040 07bc 4fc4 44bd
000000e0: 25b5 2b3d 2777 5fbd bb1f c3bc 06ef 013e
000000f0: a971 a7bd 7c06 123d 6b63 e73b 7b88 16bd
00000100: 44bd 37bd 66a1 c4bd b237 8c3c c893 e43c
00000110: 88c9 3b3d 6e65 c7bd fb62 17bc e056 62bd
00000120: a403 1cbd cb8a b2bd 8d02 f4bd 830f 7a3d
00000130: f2eb b6bd 45b0 96bc 98af 493c fad6 243d
00000140: d58d 513d 9311 f1bd 1aef 8d3d bfb1 c03c
00000150: 4bee 943d 4b5c a93b 3210 923d a6a0 be3d
00000160: 7021 a1bc c6f1 9a3d c8a8 613d 5ca4 473d
00000170: d085 8dbc 5470 d03d c4ea efbd 6664 b1bd
00000180: 77cb e9bd 9bae 933c 27b8 ad3d 9079 1e3c
00000190: 2b83 a13d 2315 ec3d 4c34 dcbd ca3b a6bd
000001a0: e8d3 523d abf5 eb3d 4e2c dabb 2c85 593d
000001b0: 1a0e 2dbd 4000 f8bb 9846 a6bd b085 8c3c
000001c0: 0ef7 193d 0f63 64bd c633 84bc 57e8 04be
000001d0: 16ba cb3d 3700 673c 38b6 cd3d a6eb bcbb
000001e0: 5550 cf3d 9fee b63d c703 a93d 1bf6 e5bd
000001f0: c328 acbd 2c19 78bd bb00 433c 21b0 f3bd
00000200: 5623 4fbd c315 d9bd 4469 bf3d d488 953d
00000210: 7b3d d7bc f613 c63d 0ad7 16bc 45a7 00bd
00000220: 4923 e83d 05e5 afbd 9bfc 963d d941 87bd
00000230: 760d e93d 15c4 bcbd 56ab c0bc f9b2 f4bd
00000240: 1b93 19bc 70c8 373d 7555 a4bd 5620 173d
00000250: 4604 8abd befe 12bd c0be 48bb e97d a53b
00000260: e41d 293b f3cc c6bd 9a2d e53d 333a 033d
00000270: 3e47 803d a09c c93d 529f 9dbd 6e9b a0bc
00000280: ec4e 74bd c8a2 a73d 55ee f23d 6c50 e13d
00000290: f10b e33d 6260 803d f8fc 75bd c418 0abd
000002a0: d008 e7bc 3aa6 f4bc 92bc 2ebc 9c73 01bd
000002b0: ca1b 0a3e d83c f53c ea9b 12bc af71 f3bd
000002c0: 8e62 0bbe b143 66bc 9b72 c1bd 6c0d 04be
000002d0: 4091 2abc 4ebf 02be 3e82 8cbd 7caa 913d
000002e0: 8a65 a83d 788a 193c 177e 3e3d 72fd a4bd
000002f0: 82a9 393d 4a47 e4bd 0268 ce3d 2e65 f0bd
0.072377704 -0.06165237 0.04812951 0.07277714 0.10121454 -0.013614148 0.002292694 -0.0079781
0.05750061 0.06303027 -0.032296333 -0.07450125 0.032815695 0.07292399 -0.024658749 -0.048188068
-0.022285718 0.0510212 -0.036646068 -0.077853516 0.020812107 0.08771877 -0.032065853 -0.06570518
0.058073744 -0.11816588 -0.055709973 0.074575074 -0.05667554 -0.07177232 -0.1066072 0.10109343
0.103409454 -0.0829984 0.13287643 0.05123146 -0.04212941 0.028557569 0.12855983 0.08974726
0.017618462 0.09797232 -0.08899035 0.10033402 -0.099264055 0.11540499 0.12730037 -0.071820185
-0.0055996906 -0.12280407 -0.012158509 0.07469553 -0.09246996 -0.072681196 -0.00825502 -0.048038777
0.0419208 -0.054556992 -0.023818841 0.12688836 -0.08175976 0.035650715 0.007061412 -0.03675125
-0.044858232 -0.09601097 0.017116401 0.027902499 0.045846492 -0.09736143 -0.009239907 -0.05525863
-0.03808941 -0.08717879 -0.11914549 0.06104995 -0.08931722 -0.018394599 0.012309931 0.04024408
0.051160652 -0.1177093 0.06930371 0.023522256 0.07272013 0.005168473 0.07131995 0.09307985
-0.019669265 0.07565646 0.055092603 0.04874073 -0.01727572 0.10177675 -0.117147 -0.086617276
-0.11415761 0.018027594 0.0848239 0.009672537 0.078863464 0.11527469 -0.10752162 -0.081168726
0.05147162 0.11521467 -0.0066581136 0.05310552 -0.042249776 -0.007568389 -0.081189334 0.01715359
0.037589125 -0.055758532 -0.016137969 -0.12979256 0.099476025 0.014099172 0.10044521 -0.005765396
0.10122744 0.08932232 0.082526736 -0.112285815 -0.08406212 -0.06057088 0.01190203 -0.11898828
-0.05057081 -0.10599854 0.0934625 0.073014885 -0.026274433 0.09671776 -0.009206543 -0.03140952
0.11334855 -0.08588604 0.073723994 -0.06604356 0.113795206 -0.09217087 -0.0235192 -0.11948199
-0.009373452 0.044868886 -0.08024112 0.036896072 -0.06739096 -0.035887472 -0.0030631274 0.00505041
0.002580517 -0.0970706 0.111903384 0.032037925 0.06263588 0.09844327 -0.076964036 -0.019605365
-0.05964558 0.08185345 0.118618645 0.110016674 0.11086262 0.062683836 -0.060055703 -0.033715025
-0.028202444 -0.02986442 -0.010665076 -0.031604394 0.13487163 0.02993624 -0.008948306 -0.11886918
-0.13611814 -0.014054225 -0.094456874 -0.12895745 -0.010410607 -0.1276829 -0.06860779 0.071125954
0.08222492 0.009371392 0.046506967 -0.08056153 0.04532767 -0.1114641 0.10078432 -0.117380485

linear.2.bias f4 [3]
00000000: b085 3cbd 4bbb b7bd 84aa b33c
-0.04602593 -0.0897127 0.021931894
